GNN-CICIDS2017/Binaryclass/src/checkpoints/GraphSAGE_best.pth (torch, 441301 bytes, 15 tensors)

conv1.lin_l.weight f4 [128, 291]
000000 51 ad 73 bb 64 81 61 bc e9 54 d0 3b f0 c1 ae bd
       -0.0037182162 -0.013763759 0.0063577783 -0.085330844
000010 ff 43 ca bb d1 a0 51 bd 2b 64 b5 bd b7 4f 4a 3d
       -0.0061726565 -0.051178757 -0.08856996 0.04939243
000020 b2 a3 df 3c 1d 21 d5 3c 6c 66 90 bc 4e 41 8a 3c
       0.027299736 0.026016766 -0.017626964 0.016876843
000030 87 74 80 3c c0 ba b5 bc ee 23 cc bc 21 62 0f 3d
       0.015680565 -0.022183776 -0.024919476 0.035005692
000040 35 be 9f 3b 07 c3 08 bb 00 3e b1 3c 3e 71 6d bd
       0.0048749694 -0.0020868198 0.02163601 -0.057969324
000050 e3 e1 bd bd 59 70 a5 bd 32 4d 82 bd 8e 39 ea 3c
       -0.092716 -0.08078069 -0.0636238 0.028591897
000060 f5 bc 9d bd 66 09 8b bd 7a 31 f7 bc bb 45 ea bc
       -0.07702056 -0.06788902 -0.03017496 -0.028597703
000070 82 65 2d bd f9 e7 4f ba 69 3a 36 3d 02 33 16 3a
       -0.042333134 -0.000793099 0.044489298 0.00057296467
000080 11 1e cc bc 3b 7d 47 bc ab 4a 3f bc 42 d8 10 3d
       -0.02491668 -0.012175853 -0.011675517 0.03536249
000090 8a d4 81 3c 51 1b 45 3d eb 96 22 3d 32 58 7b bb
       0.015848417 0.048121754 0.039694708 -0.003835213
0000a0 5b 31 ed bc c7 b5 48 3d a0 42 3c 3d 67 3f 0e 3d
       -0.028954199 0.04900148 0.045961976 0.034728434
0000b0 52 1f 51 3c e5 59 2f bd b0 b0 84 3d ac 50 33 bc
       0.012763815 -0.04281034 0.06479013 -0.010944527
0000c0 1d 7f 2d bd af c6 0d 3d 15 57 1b 3d 2f ac b8 3c
       -0.042357553 0.034613308 0.037924845 0.022543041
0000d0 2d cd 06 3b 3f 85 20 bd 3b 4a 67 bd 0e a4 74 bd
       0.0020569072 -0.039189573 -0.056467276 -0.059726767
0000e0 62 24 47 3d 91 ed 14 3d e1 fc 36 3d 06 17 11 3d
       0.04861868 0.036359373 0.044674758 0.035422347
0000f0 a3 91 a6 bc 30 ea 24 bd c3 56 de 3c 35 cc 80 bc
       -0.020333117 -0.0402624 0.02714098 -0.015722374
000100 c0 b5 89 bb b2 39 af 3c 51 fd d7 3c d7 38 ca 3b
       -0.0042025745 0.021389816 0.026365908 0.0061713266
000110 57 ee 6a bd 3c a0 99 bc f4 5f 77 bc e2 bf 91 bd
       -0.057356205 -0.018753164 -0.015098561 -0.07116677
000120 de 1d 2b 3d ec 7c 93 bd 5f eb 53 bc 35 60 31 bd
       0.04177653 -0.07201561 -0.012934535 -0.04330464
000130 88 55 3c ba 4a d9 06 3d 1d 85 20 bd 46 8d 83 bc
       -0.0007184376 0.032922067 -0.039189447 -0.016058575
000140 78 6b 17 bd b9 de 3b bc b7 1e 1f bc 45 b9 3d 3c
       -0.036967725 -0.011466675 -0.009711913 0.011579816
000150 db 52 dc 3c 5b be b8 3d dd f8 92 3d ae c4 6b bd
       0.026894977 0.090206824 0.07176373 -0.057560615
000160 4e 19 80 bb e7 bc 70 bc 66 03 56 bd 6f 17 06 bd
       -0.0039092666 -0.014693475 -0.052249335 -0.03273719
000170 c6 a6 b1 3a d8 99 94 bb 7a f8 06 bd 2d c6 d6 3c
       0.0013553731 -0.004534941 -0.03295181 0.026217544
000180 ac 80 21 bd 4b d7 6f bd 63 41 78 bc e8 b8 e9 bc
       -0.03942935 -0.05855493 -0.015152308 -0.028530553
000190 7a 03 af bc d9 f5 05 3d 10 34 22 bc 41 e5 b0 3c
       -0.021363962 0.03270516 -0.009900108 0.021593692
0001a0 10 19 8a 3d 5c c8 af 3a ef ba 65 bd af 6e 82 bb
       0.067430615 0.0013411152 -0.056086477 -0.0039804797
0001b0 2e 8c 5d bd aa 53 b4 bd 5f ef 01 3d 71 8d fd bb
       -0.054088764 -0.0880502 0.031722423 -0.0077378084
0001c0 aa 52 42 3c a0 1d a9 3a 53 ad ad bb e0 30 0f bd
       0.011860529 0.0012902506 -0.005300203 -0.03495872
0001d0 99 42 14 bd 47 4d 11 3b 71 db 1d bc bd a7 96 bb
       -0.036196325 0.0022171305 -0.009634838 -0.0045976327
0001e0 6f 3d 48 3d 1d c5 32 3d ff 36 99 bc 73 a8 3b 3d
       0.048886713 0.043645013 -0.018702982 0.045814943
0001f0 1f 06 ee 3c 2c e0 99 3d 31 2d 55 3d 4e 02 c8 ba
       0.029055653 0.075134605 0.05204505 -0.0015259476
000200 8d eb 54 bd 65 2d 4a bd 09 3e 48 bd 04 73 4a 3d
       -0.05198245 -0.049359698 -0.048887286 0.049426094
000210 42 38 b5 3b bf 69 89 bc b2 a7 0a 3d 34 16 b4 3c
       0.005530388 -0.016774056 0.033851333 0.021983244
000220 f3 34 d6 3b aa 98 43 bb bc 6b da 3c a1 85 4b 3c
       0.0065370738 -0.0029845634 0.0266627 0.012421996
000230 d4 8e d8 3c 4b e0 df 3c a0 82 38 bc 70 46 3f bc
       0.026435293 0.02732863 -0.011261612 -0.011674508
000240 10 54 7d bc d3 e1 50 3c 7f 0d 17 bd 96 1d 0a bd
       -0.015461937 0.012749153 -0.036878105 -0.03371962
000250 f8 fa cb bc 08 e2 2c 3d 34 b3 5f bd 46 9d aa 3c
       -0.024899945 0.042207748 -0.05461426 0.020826947
000260 8a 9c 65 bd b6 db ee bc eb 34 23 bd f8 c9 19 bc
       -0.05605749 -0.0291575 -0.03984539 -0.009386532
000270 ab 0f fa bb 6a d3 08 bd 8a f9 7a 3d 43 68 2f bd
       -0.0076312623 -0.033404745 0.061273135 -0.04282404
000280 c4 84 5c bd ed dd f3 bc 3e a0 6f bd b5 fd 6f bc
       -0.053837553 -0.029768908 -0.05850243 -0.014647891
000290 49 af ca ba 03 11 21 3d c2 58 91 bc 6e e4 44 3c
       -0.0015463616 0.039322864 -0.017742518 0.0120173525
0002a0 f5 10 72 bd 81 99 04 bd 90 57 a8 bb 59 3b 12 3d
       -0.059098203 -0.032372955 -0.0051373914 0.03570113
0002b0 53 66 2b bd 3b bc 47 3d 3c ee df bc c9 20 84 bc
       -0.04184563 0.048763495 -0.027335279 -0.016128914
0002c0 92 08 3f bc 70 19 06 3d 23 29 de bd 18 4d 69 bc
       -0.011659758 0.032739103 -0.1084769 -0.014239572
0002d0 37 ee 41 bd a1 07 3c 3c 47 3e 90 bc 1f b3 46 3b
       -0.04734632 0.011476428 -0.017607821 0.0030319167
0002e0 eb 42 23 3d 9f 60 9b bc 97 78 b1 3c 92 43 b6 bb
       0.03985874 -0.018966971 0.021663947 -0.005562254
0002f0 7c 31 ea 3c 56 b5 9a bc 39 9f e1 3c ef 82 63 bc
       0.02858805 -0.018885296 0.027541744 -0.0138861975
000300 a0 b6 b5 3b fa a2 17 bd 47 90 20 bd fc e3 19 3c
       0.0055454522 -0.03702066 -0.039200094 0.009392735
000310 09 a2 d1 3c 9f fe 70 bb 63 a1 96 bc fa 27 59 bd
       0.02558996 -0.003677286 -0.018387502 -0.05301664
000320 01 1e 56 bd 84 d7 49 bc 59 02 36 3d a7 5c 7f 3a
       -0.052274708 -0.012319449 0.044435833 0.00097412843
000330 4d 55 46 bd 5c a0 76 bc 93 07 ec bc e9 33 50 3d
       -0.048421193 -0.015052881 -0.028812205 0.050830755
000340 bc 92 0d 3d 13 b7 81 3d e4 c9 03 bd 2c 41 ae 3b
       0.034563765 0.06333747 -0.03217496 0.0053178277
000350 9b 24 03 bb 11 ee 59 3c 94 1d 40 3c 61 90 11 bd
       -0.0020010832 0.013301388 0.011725802 -0.03553808
000360 1d 82 3d 3c 64 a1 d5 3b 6e 49 3a 3c eb d9 21 3d
       0.011566666 0.0065194834 0.011370046 0.039514463
000370 2a 39 aa 3c 4e e5 70 bd 30 ab 0c bd 64 d1 1e 3c
       0.020779211 -0.058812432 -0.034342945 0.009693477
000380 42 77 96 bd 9d 16 45 3a 61 be 4e 3d 01 c3 a8 bc
       -0.073469654 0.0007518323 0.05047453 -0.020600798
000390 10 88 44 bb 1a 8d 40 3d c4 6e cb bc 11 22 18 3d
       -0.0029988326 0.047009565 -0.02483309 0.037141863
0003a0 7f a5 ce 3b 4c 3f d5 bc 61 db 5a 3c 74 a0 a1 bd
       0.0063063498 -0.026031159 0.013357968 -0.07891932
0003b0 66 a7 bb 3a e6 1a 83 bd 92 54 9d 3c 2d e7 d5 3c
       0.0014316856 -0.06401615 0.019205365 0.02611121
0003c0 26 fc 53 bd c0 40 e6 bc 5b 03 fc bc b2 ae 82 bd
       -0.05175414 -0.028107047 -0.030763319 -0.06380977
0003d0 96 13 0d 3c 5a 51 4d 3d 61 be 6f bd 42 e5 8f 3d
       0.008610627 0.05012641 -0.05853117 0.07026149
0003e0 4d 36 fe bc 24 00 f6 3c 9e 0b 3d bc 0f 19 f2 bc
       -0.031031752 0.030029364 -0.011538414 -0.029552964
0003f0 c4 d5 95 3c b7 ec b0 bc 10 3b 02 3a d6 fc dd 3c
       0.018290408 -0.02159725 0.00049679074 0.0270981

conv1.lin_l.bias f4 [128]
000000 36 4f 42 bd 5a 0d 9c 3d b6 fb 8f 3b e4 30 52 bc
       -0.047438823 0.07619734 0.00439402 -0.012829039
000010 13 0c d5 3d 3c bf 50 bd dc 16 73 bc f5 ec c0 bc
       0.104026936 -0.050963625 -0.014836993 -0.02355049
000020 94 02 fa 3b 6d 7a b3 3d 9e 3c 03 3d 5b 83 bc 3c
       0.007629702 0.08763585 0.03204023 0.023011854
000030 b7 87 a3 3b 26 71 2b 3d 72 a2 66 3d 9f 74 23 bd
       0.0049905437 0.041855954 0.056307264 -0.03990614
000040 fa 1d bb bc a5 7a 1c bd 11 59 ab 3c cc f2 9f 3b
       -0.022841442 -0.0382029 0.020916494 0.0048812386
000050 12 1f 83 bd dc f0 54 bd 39 48 7c bd 96 81 b7 bb
       -0.064024106 -0.051987514 -0.061592314 -0.0056001646
000060 b1 ce 5f bd 90 65 2c bd 95 10 b6 3b dc c9 ac bc
       -0.054640476 -0.042089045 0.005556176 -0.021092348
000070 7d aa 1e 3d 03 58 65 bd 4e a5 16 3e ca b3 3a 3d
       0.03873681 -0.055992138 0.14711496 0.045581616
000080 79 f0 03 3c 11 b0 16 bc 93 3d 12 3c f2 76 37 bd
       0.008052939 -0.009197251 0.008925813 -0.04479117
000090 8c a6 fc bc 2e 9a ae 3b b5 57 a8 3d 29 ba 50 3c
       -0.030841134 0.0053284382 0.08219854 0.012739697
0000a0 1c 42 c7 3c 8a 89 a4 3c d8 ae db 3b 89 df 1a bd
       0.024323516 0.020085115 0.0067041926 -0.037810836
0000b0 46 a2 f3 3c 16 7f 3e 3d e5 49 cb 3b 58 59 31 bd
       0.029740464 0.046507917 0.0062038773 -0.043298095
0000c0 0c c1 7a bd ba f7 19 3d bf 9f f9 bb a1 9c ec bb
       -0.06121926 0.037589766 -0.00761792 -0.00722082
0000d0 e8 41 92 3b c5 40 b6 3d b9 89 83 bd c7 7c 35 bd
       0.004463423 0.088990726 -0.06422753 -0.04430845
0000e0 28 b5 13 bb 92 f9 1b bd 95 e8 b3 bc bb 5e 0a bd
       -0.0022538397 -0.038079806 -0.02196149 -0.03378175
0000f0 a3 f7 74 bb 52 e3 dc 3c be 2b 63 3c a1 53 12 3d
       -0.0037379048 0.026963864 0.013865409 0.035724286
000100 0b bf 1a 3e 1b 25 16 bd fa 0d 30 bd 4a d9 26 3d
       0.1511194 -0.03665648 -0.04298208 0.040734567
000110 b7 13 4b bd dc 80 34 bd 50 28 06 bd 03 f0 c8 3c
       -0.04957935 -0.044068202 -0.03275329 0.024528509
000120 38 9f 08 bd 99 75 fe 3b 77 fc 15 bd 1c f8 ce 3c
       -0.033354968 0.0077654836 -0.036617722 0.025264792
000130 29 e4 ee bb 1c 8c 83 bd 18 fd ad 3c b9 f4 53 bc
       -0.0072903824 -0.06423208 0.021238849 -0.012936764
000140 c6 80 12 bc c1 8c 95 bc 19 5c cb bc 2f a5 06 3e
       -0.008941835 -0.018255593 -0.024824189 0.1314895
000150 4c 40 4a bd db de 8b 3d f1 46 22 3d 0a 8a be 3d
       -0.049377725 0.06829616 0.039618436 0.093036726
000160 af 3d 89 bd 70 13 56 bd 15 9b 99 3c 92 e2 51 bb
       -0.06701218 -0.05226463 0.018750707 -0.0032025916
000170 fc cb 7d bd 7e 50 0e 3d 30 ec 40 bd e7 f9 d9 3c
       -0.061962113 0.034744732 -0.047100246 0.02660842
000180 74 7e 20 bd 78 1b 63 3b 18 23 51 bd a1 f5 63 bd
       -0.039183095 0.0034653824 -0.05105886 -0.05565417
000190 6d ff 21 bd 1e 3b e6 bb d1 c4 12 3d f7 e3 1d bb
       -0.039550234 -0.0070260903 0.03583223 -0.0024092176
0001a0 5a e6 ac 3d c2 b7 d5 bb a8 02 2d 3d cf 95 3b bd
       0.084423736 -0.00652215 0.04223886 -0.045797165
0001b0 21 4a 67 3d ed df 85 bc 32 44 4e bb 94 6d fc bb
       0.05646718 -0.016342128 -0.0031473753 -0.0077034924
0001c0 ce a8 85 3c 55 83 d1 3b 42 e4 0d bd 29 63 8a bd
       0.016315844 0.00639383 -0.03464151 -0.067571945
0001d0 b7 fe 66 ba 38 e6 96 3c 13 4a 8d 3c 73 be 3c bd
       -0.0008811759 0.018420324 0.017247235 -0.046080064
0001e0 29 6e 23 3d 94 36 4a 3d 3f 1e a5 3d 36 77 0d 3d
       0.03989998 0.049368456 0.080624096 0.034537517
0001f0 1b ca 3c 3d 83 32 42 3c d3 48 05 3c fb e6 3a bb
       0.04609118 0.011852863 0.008135038 -0.0028519023

conv1.lin_r.weight f4 [128, 291]
000000 9b a1 2c bc 7a 7f cf 3c 90 ea 44 bd d0 a0 99 3b
       -0.010536577 0.02532934 -0.04807526 0.00468836
000010 6e 2d 47 3d 02 c4 98 3b 13 2a 3c bd ef 76 40 bd
       0.04862731 0.004662038 -0.045938563 -0.046988424
000020 d9 51 b1 3b 36 a6 1c 3c d1 e3 56 bd 4c ce 75 3c
       0.0054113683 0.009561112 -0.052463356 0.015002798
000030 73 8d a7 bc 9d c7 a7 bc e7 94 e1 3c d1 3d 82 3d
       -0.02045319 -0.020480925 0.027536822 0.06359447
000040 4c a9 c7 bc 9a 61 25 3d e1 c3 3e bd 10 3e 7f bc
       -0.02437272 0.040376283 -0.046573523 -0.015578762
000050 24 9c 25 3d 0a d7 33 3d 5a 5f aa 3c 19 93 bd 3b
       0.04043211 0.04390625 0.02079742 0.0057853577
000060 d7 7e f5 bb a4 fd db bc ed a1 36 3c 4f b4 32 bd
       -0.007491927 -0.026854344 0.011147005 -0.043628987
000070 23 c6 44 bc 99 3a e1 3c b5 11 56 bc b5 7f aa 3d
       -0.01201013 0.027493762 -0.013065745 0.083251394
000080 22 a5 03 3d c5 95 73 bb 06 3f 35 bd 9c 09 d0 bc
       0.032139905 -0.0037168127 -0.044249557 -0.025395207
000090 d9 38 ec 3c 94 f1 19 bd ad 89 89 3c ba 6c 4b bd
       0.0288357 -0.037583902 0.016789282 -0.049664237
0000a0 4b 25 c3 3c df 7c f4 3c 4e 5c 8a 3c e8 6e 86 3d
       0.023821494 0.0298447 0.016889717 0.065641224
0000b0 5a bb 8d 3c 2c 05 24 bd 66 62 ce 3b 94 03 cb bc
       0.01730125 -0.040043995 0.006298351 -0.02478198
0000c0 33 3b a1 bb b0 89 84 3d d9 a2 cd 3b 96 5c 9a bc
       -0.004920387 0.06471574 0.0062755165 -0.018842977
0000d0 c2 b7 8d 3c 7d f9 ca 3c 22 a4 2c 3d b5 ec cb bc
       0.017299537 0.024777168 0.042148717 -0.024893144
0000e0 df b2 33 3d d0 c1 24 bb 11 e3 43 bd 71 34 1e bd
       0.043871757 -0.0025139935 -0.04782397 -0.03862423
0000f0 58 fe 92 bc 4d 3f 37 3d 03 20 24 bd d0 f9 22 3d
       -0.017943546 0.044738103 -0.04006959 0.03978902
000100 4d 60 fd bd 68 66 a8 bc 64 5c 15 3c 96 a0 90 3d
       -0.123718835 -0.020556644 0.009116266 0.07061879
000110 35 32 7e 3d a2 1a 9c bc 53 b8 1d 3d 6e 7b c2 3c
       0.0620596 -0.019055668 0.038505863 0.023740496
000120 fd 16 b5 bd 51 cd 29 bc 10 b3 82 bd 73 17 94 bd
       -0.08842275 -0.010363893 -0.0638181 -0.07231035
000130 03 96 b3 ba 8d 99 8d bd 63 5d a9 3c ca 08 39 3c
       -0.0013701323 -0.06914053 0.020674413 0.011293599
000140 9d 07 8b bd 8d 56 29 3d 9b a3 5a bd 40 c6 8c bc
       -0.067885615 0.041342307 -0.053378683 -0.017184377
000150 4f d1 b2 bc 7f 13 09 be ae 11 22 bd 6e c9 9d 3d
       -0.021828322 -0.13386343 -0.039567642 0.07704435
000160 cf 2b 84 3d 12 e9 69 3d 16 1c ed bc db 9d 76 bb
       0.06453668 0.05710704 -0.028944056 -0.003763071
000170 04 ce 39 3d a9 61 0b bd 10 3f c8 3c 18 23 21 bb
       0.045362487 -0.034028683 0.024444133 -0.0024587568
000180 54 a3 a2 3c d3 0f ce 3c 5a 81 89 bc 4e f6 81 bc
       0.019853272 0.02515403 -0.016785312 -0.015864518
000190 d2 27 3e 3c 05 0a e7 3c 34 3a 01 3d ad 8d 1f 3b
       0.011606174 0.02820302 0.031549647 0.002434592
0001a0 3f 11 45 3c d7 fb e3 3c f5 55 18 3d 99 1b 9b bb
       0.012028038 0.027830048 0.03719135 -0.0047335145
0001b0 8e 2b 00 3c dd 30 bb bd 27 59 fc bc 76 07 33 3c
       0.007822884 -0.09140179 -0.03080423 0.010927072
0001c0 2e 8a 28 3a d5 76 b8 3c 93 f7 f5 3c 0b 3a 8c bd
       0.0006429282 0.022517601 0.03002528 -0.06847008
0001d0 66 6b 95 bd 73 90 64 3d 61 5d 09 3d 99 5f 3b 3d
       -0.07295875 0.05580182 0.03353632 0.045745466
0001e0 62 2b 9b bd 7d 80 34 3c 4e d8 43 3c ee 55 35 bd
       -0.07576634 0.011016962 0.0119534265 -0.044271402
0001f0 ca ea a9 3b a0 26 21 bd fd 2d 14 bd 09 01 12 3c
       0.0051854597 -0.039343476 -0.03617667 0.00891138
000200 1a 4e 48 3c ce 25 2d bd 4d 6a 79 3d 90 9b 99 3b
       0.012225652 -0.04227238 0.060892392 0.004687734
000210 a8 b2 87 3a 19 d2 15 3d ba 3d 4c 3b a8 ea 8c bc
       0.0010352926 0.036577318 0.0031164722 -0.017201737
000220 09 14 91 bd 08 28 8f bc e2 6e a1 bb 96 a1 20 bc
       -0.070838995 -0.017475143 -0.0049265483 -0.00980415
000230 a6 ed ec b9 e3 70 40 3d 7d 79 fa bd 68 71 2f bd
       -0.0004519049 0.046982657 -0.12230203 -0.042832762
000240 3a 71 0b 3d b1 ca f8 3c ad 2c cb 3d 3f c0 99 bc
       0.03404353 0.030370088 0.099206306 -0.018768428
000250 34 28 a7 3c eb 49 54 3d 3f 76 f3 bd 0f 0b a9 bc
       0.020404913 0.051828306 -0.11887788 -0.020635156
000260 56 37 cd 3b bf 64 e1 bd 14 a1 81 bc 69 3f 30 3d
       0.0062627 -0.11005544 -0.015823878 0.043029223
000270 d6 05 19 bc c4 bb 4e bd a0 2f 7f bc c2 ca 54 3d
       -0.00933977 -0.050472036 -0.0155753195 0.051951177
000280 c2 28 b9 bd b6 96 0b bc 6d b4 cc 3c 35 81 f7 bd
       -0.09040977 -0.008519819 0.024988377 -0.12085191
000290 85 2f 2e bd 74 0f e7 3c 26 81 cd 3d 71 9c 51 3d
       -0.042525787 0.02820561 0.10034399 0.051174585
0002a0 be be 15 bd fd 2d 67 bb f5 3f bb 3d 58 16 12 bd
       -0.03655886 -0.0035275214 0.09143058 -0.03566584
0002b0 9d ee b8 3c 64 fb fc 3c 87 0c 02 bd f7 5c da bc
       0.022574717 0.030881591 -0.03175023 -0.026655657
0002c0 ee 3e dd 3c 0f b1 fc 3c f7 a3 3b 3d b1 41 81 3a
       0.027007546 0.030846147 0.045810666 0.0009861497
0002d0 f9 d3 9b 3c 9e 06 02 bd 35 81 79 3c 53 db 42 bc
       0.019021975 -0.031744592 0.015228559 -0.011893111
0002e0 0f db a4 3c 35 76 26 3d 7f 53 2e 3c aa bb 75 bd
       0.020123987 0.040640075 0.010640024 -0.059993424
0002f0 9e ef 1f bd be 93 91 3c 4f ea d3 3c f4 ac 15 3d
       -0.039046876 0.017770644 0.025868563 0.036541894
000300 03 d9 fd 3c c6 f7 99 bd 4a 6f 83 3c 9c 5c 46 3d
       0.030987268 -0.07517962 0.016044278 0.048428163
000310 c2 b6 9b bc 72 1c 3c 3d 95 8c 8d bc af b5 db bc
       -0.019008044 0.045925565 -0.017278949 -0.026820032
000320 9f f4 a9 bc 55 fd 66 bd 6f 6d 34 3c c1 4b 34 bc
       -0.020746527 -0.05639394 0.011012419 -0.011004389
000330 7e 4d 1c bd 2e 6f 19 3d 35 52 07 3d c5 90 22 bd
       -0.03815984 0.037459545 0.033037383 -0.039688844
000340 b5 e9 69 3c 24 63 b2 3d 06 7a 7b 3d 28 cb 45 bc
       0.0142769115 0.08710316 0.061395667 -0.012072362
000350 f4 fb 95 3d 36 10 36 bd b0 75 c9 bd 6c b9 26 bc
       0.07323447 -0.044449054 -0.098369 -0.010176044
000360 dd 4e c3 bc 52 02 d0 bc f8 4b fd 3c 15 1d 18 3d
       -0.023841316 -0.025391731 0.030920014 0.03713711
000370 54 5f 09 be 50 3d f1 bc 3c 49 d9 3c 49 26 88 3d
       -0.13415271 -0.029448181 0.026524179 0.06647927
000380 43 89 0e 3d b5 c9 9d 3c 7e c8 04 3d 73 33 ba 3c
       0.03479887 0.01926122 0.032417767 0.022729611
000390 e7 3e c4 bd 07 21 30 bd 1c c8 33 3c c2 5e ad bd
       -0.0958231 -0.043000247 0.010973003 -0.08465339
0003a0 a4 0d dd bb 4a 96 cd 3c ac ab 0f 3b 87 ab cd bd
       -0.006746011 0.025096077 0.0021922393 -0.10042482
0003b0 74 dc 0f 3d 51 1f 86 3d 0d 78 e9 bd cc 7f 80 3d
       0.03512235 0.06548942 -0.11399851 0.06274375
0003c0 f3 f2 0c 3d 20 12 15 be be 65 7e bc 80 f4 06 3d
       0.034411382 -0.14557695 -0.015527187 0.032948017
0003d0 9a 48 83 3d c6 67 96 3d 48 5f 44 3c 17 25 ac 3d
       0.06410332 0.07344012 0.011985607 0.08405512
0003e0 40 42 05 3d 73 f7 d4 bc a4 a9 5e 3d a3 4d da 3c
       0.032533884 -0.0259969 0.054361 0.026648348
0003f0 f5 ad 45 bd 92 c2 54 bd 8f c3 7d 3d 3b 7a e3 3b
       -0.0482616 -0.05194337 0.061954077 0.0069420612

conv2.lin_l.weight f4 [128, 128]
000000 2e 95 39 3d 5e c7 0f 3c a9 27 21 3d b2 b0 a0 3d
       0.045308284 0.00877556 0.039344463 0.07846202
000010 42 7c d0 bc f9 6d 91 bd 0d 5a b2 3c 53 7e 9a 3d
       -0.025449876 -0.07101054 0.021771455 0.07543626
000020 43 ef 9f bc 5f e8 52 3c 95 db fa 3c 99 bd 72 3d
       -0.019523269 0.012872784 0.030622283 0.059262846
000030 ec 4b 70 bd 06 63 de bc 70 bd 4f bd 1a a3 10 bc
       -0.058666155 -0.027146827 -0.05071777 -0.008827949
000040 d7 79 08 bd 0f 70 28 3d 60 d0 ac 3b bc 8a cb bb
       -0.03331932 0.041122492 0.0052738637 -0.006211607
000050 53 5d 1f 3d 90 d2 06 bd 73 70 d4 3c 30 6c 77 3d
       0.03890736 -0.03291565 0.025932526 0.06040591
000060 07 ec ba bc 47 24 f9 3c 42 e4 86 3d b2 7e cc 3b
       -0.022817625 0.030412806 0.065865055 0.006240689
000070 72 eb e3 bb d3 a7 88 bd 57 ae 37 bd 40 36 74 3d
       -0.0069555575 -0.06672635 -0.044843998 0.05962205
000080 64 9e 4d 3c 68 0a a8 3c 8c fc cf 3c 30 85 8f bc
       0.01254997 0.020512775 0.025388978 -0.017519563
000090 5e ff 5f 3d cd 4a 09 3c 38 2f 91 3d 66 43 a9 3d
       0.054686897 0.00837965 0.070890844 0.08264808
0000a0 47 bb 37 bc e8 c6 84 3d 74 ac 8b bd 62 5c 07 bd
       -0.011214084 0.06483251 -0.06820002 -0.033047087
0000b0 44 02 5f 3c 15 86 db 3c cc c2 13 3c cf 47 a3 bc
       0.01361138 0.026797334 0.009018611 -0.019931702
0000c0 27 3f a2 bc d6 27 57 3c fe cf af bb e0 da a0 3c
       -0.019805504 0.013132056 -0.005365371 0.019635618
0000d0 82 49 a7 3c 89 65 a2 3d 5c c8 38 bd bb fc 88 bd
       0.020420793 0.079295225 -0.045112953 -0.066888295
0000e0 90 d8 75 bb 37 1f e3 3c 0b 25 45 bd f4 59 f6 bc
       -0.0037513115 0.027724845 -0.04813103 -0.03007219
0000f0 68 31 f9 3c 3b a3 a1 3d 94 14 ad bc c8 6f 83 3d
       0.030419067 0.07892462 -0.021127976 0.06417805
000100 14 f0 05 3d 15 60 b8 bd d7 6d 72 3d 5c c6 29 bd
       0.03269966 -0.09002701 0.059186783 -0.041448936
000110 70 62 55 bd ba c6 20 3d 85 9f 11 3d f3 03 bf 3c
       -0.05209583 0.03925202 0.03555252 0.023317313
000120 1c 04 14 bd 16 18 92 3c 59 20 d0 3b e9 f8 ae 3c
       -0.03613673 0.01783375 0.0063515124 0.021358924
000130 43 64 25 3d 11 8e df ba 80 92 5e 3c 46 e2 6a 3d
       0.04037882 -0.0017055889 0.013584733 0.057344697
000140 58 2b c5 bc cc 6b af bd d5 15 34 3d 2a b7 d1 3d
       -0.02406852 -0.085654825 0.043966133 0.10240014
000150 0a 0a 48 3d 38 67 98 3a 4d f1 6a bd f8 99 71 3d
       0.0488377 0.0011627441 -0.05735903 0.058984727
000160 a9 39 e0 bd 69 be 8f 3d cf 0c 62 3d ff 84 54 bd
       -0.10948498 0.0701874 0.055187996 -0.051884647
000170 96 e9 a8 3d e3 7e 5f bd 16 10 32 3c ee df 9c bd
       0.08247678 -0.054564368 0.010868093 -0.07659899
000180 d4 e7 85 3d f6 d0 03 3d 8e 1d 60 bd 49 0d 17 bd
       0.06538358 0.032181703 -0.054715686 -0.036877904
000190 04 e3 72 3d 60 f9 05 bd 85 1d 22 bd 85 85 92 bd
       0.05929853 -0.032708526 -0.039578933 -0.07154373
0001a0 06 c0 dd 3c 91 41 f9 3b ba ec c6 bc ba 4e 4e 3d
       0.027069103 0.007606693 -0.024282802 0.05036805
0001b0 82 9b 36 3c 84 d9 40 39 37 6e 47 bc 51 f3 ec bc
       0.011145474 0.00018391578 -0.012172273 -0.028924616
0001c0 d6 02 37 bd 4e af 56 bc ed a2 84 3c 2b aa 11 3d
       -0.04468044 -0.013103319 0.01619097 0.035562675
0001d0 fc c5 92 3d 31 e9 ba 3a 42 a4 22 bd be 2e e8 bc
       0.07166669 0.001426017 -0.03970743 -0.0283426
0001e0 30 67 2d 3d bc 96 b3 ba 6a d8 85 bd f6 33 c2 3d
       0.042334735 -0.0013701539 -0.06535418 0.09482567
0001f0 41 fd 3c 3d 67 a4 48 3d 77 b4 87 bd 58 7a d0 3c
       0.04613996 0.04898491 -0.06626218 0.025448963
000200 a6 17 11 bc 36 f5 03 3e 0b 2c 0c 3a 69 b2 1e 3d
       -0.008855736 0.1288651 0.0005347139 0.038744364
000210 cc 3a 67 bc bc 6b 47 3d 63 17 86 3c 38 d9 4c bd
       -0.014113139 0.048686728 0.016368574 -0.050011843
000220 49 a3 02 3d 89 0a 53 bd 22 90 0b 3d 29 55 08 3d
       0.031894002 -0.05152372 0.034073003 0.03328434
000230 b1 37 01 be 53 3b f5 bb c9 07 27 bd e9 80 86 bd
       -0.12618901 -0.0074838786 -0.04077891 -0.065675564
000240 ab 7f 76 3c e2 5d a1 bc 78 c1 9c 3d 2b 7e 70 3d
       0.015045087 -0.019698087 0.07654089 0.058714073
000250 e5 62 4e bc 16 3f 7b 3d e8 9f 28 bd fc b2 28 3d
       -0.0125968205 0.06133946 -0.041168123 0.041186318
000260 a9 a0 1c bd 77 cb 5a bc fa 05 5b 3c 29 a2 32 bc
       -0.038239155 -0.013354174 0.013368124 -0.01090292
000270 1d 80 ea bc 31 5e 56 bd fe 2a cd bb 56 47 04 3d
       -0.028625542 -0.05233592 -0.0062612286 0.032294594
000280 3c ac 94 bd be 88 e9 3c fd 4b a7 bd 94 43 52 3d
       -0.072594136 0.028507587 -0.081687905 0.05133398
000290 bd 6d 8e 3d 04 a1 a2 bd f4 73 da 3d 7c 0d 3e 3d
       0.06954525 -0.079408675 0.106666476 0.04639958
0002a0 1b b9 bb bd 7f fb e3 bc d9 bc 88 bd 20 55 15 3e
       -0.091661654 -0.027829884 -0.06676645 0.14583254
0002b0 ca 25 94 bd 00 2d fa 3b 4f de ba 3d 57 5f 8c bc
       -0.0723377 0.007634759 0.09124433 -0.017135305
0002c0 24 fd 5c 3d 9c 11 46 3d 75 87 c9 bb 2d 78 3c 3d
       0.05395235 0.048356637 -0.006150181 0.046013046
0002d0 a0 46 f2 bc 25 b4 0e bd 56 8a 39 3e a7 17 48 bb
       -0.029574692 -0.034839768 0.18119177 -0.0030531676
0002e0 5f b1 80 bd 32 9f d2 3d b7 ad e1 bd d2 fd 5d be
       -0.06283831 0.1028427 -0.110194616 -0.21678856
0002f0 b7 00 97 3b e1 2a f1 3c 58 db 0e ba 62 9b 5e 3b
       0.0046082395 0.029439392 -0.0005449555 0.0033967127
000300 34 13 1f bd 5b 33 8a bd e5 72 fb 3c 98 12 00 3c
       -0.038836673 -0.067480765 0.030694434 0.007816933
000310 a5 92 19 be 07 f4 2a 3d 36 66 d1 bc 65 9b 32 3d
       -0.14997347 0.04173663 -0.025561433 0.043605227
000320 aa b0 11 bc 39 09 6c 3d 17 16 03 3c d0 2b 49 3d
       -0.008892218 0.057625983 0.008000872 0.04911405
000330 ea bb ae 3d 4a 79 a6 bc 87 73 bb bd 1b 28 8a 3d
       0.085319355 -0.020321507 -0.091528945 0.06745931
000340 9b 59 9e bd 56 8b d9 bd b4 7b c0 3d 81 1a f8 bc
       -0.07731935 -0.10622279 0.093985945 -0.030286076
000350 24 91 0b 3e a8 0d 09 3d fd 75 b6 bc 78 b7 12 3d
       0.13629586 0.03346029 -0.022273058 0.0358195
000360 d2 2b 47 3d f7 68 f7 3c 24 86 5f bc 11 7b b0 3d
       0.048625775 0.030201418 -0.013642821 0.08617223
000370 58 f8 79 bd d7 6c 63 3c 0f b6 78 3d cb 7d 3e bd
       -0.061027855 0.01388093 0.0607205 -0.046506684
000380 b8 74 5f bd e2 86 91 3d 98 68 f8 39 02 35 21 3d
       -0.05455467 0.07105805 0.00047380175 0.039357193
000390 16 23 df bc 49 74 80 3b a2 c0 4a bd 6c bd 94 3b
       -0.02723841 0.0039201123 -0.049500115 0.0045391824
0003a0 c0 4f 38 bd cb 4e e9 bc 9d 67 4a bd f0 3b 9d 3d
       -0.04499793 -0.028479954 -0.04941522 0.07677448
0003b0 15 0f 3b bd df 38 c2 3c 3b c9 ba bd 86 18 2a 3c
       -0.04566868 0.023708759 -0.09120413 0.010381823
0003c0 cd a9 80 3d 1d 05 5f 3d bf 4f 5f 3c 04 4b a5 bd
       0.06282387 0.054448236 0.013629853 -0.08070949
0003d0 0e 57 b2 bc c7 83 03 be b0 3b d0 3c b3 0d 47 bc
       -0.021770027 -0.12843238 0.025419086 -0.012149262
0003e0 4a ab d9 bc 01 29 a8 3d dd 8d 3a bc 69 fb bc 3d
       -0.026570935 0.08210946 -0.011386362 0.0922764
0003f0 21 95 82 3d c5 08 12 ba 91 c4 5e bc 16 72 8f bb
       0.063761 -0.0005570765 -0.01359667 -0.004377614

conv2.lin_l.bias f4 [128]
000000 66 6e 72 bd 54 fd c4 bd d3 07 d5 bd 0f 2c bc bd
       -0.059187315 -0.09618631 -0.10401883 -0.09188091
000010 b3 21 01 be 51 0c a7 3d 56 6e 31 bd 9b 3a 3b bd
       -0.12610511 0.08156646 -0.043318115 -0.045710187
000020 b2 ce 42 be f7 69 2f be 95 0e e3 bd 44 60 55 bd
       -0.1902416 -0.17130266 -0.11086766 -0.05209376
000030 7f 2a 5b be 3d fd 9c 3c fe 7c 14 be b2 b4 6a 3d
       -0.2140293 0.019163722 -0.14500806 0.05730123
000040 f8 c8 8a bd fc 79 10 be f1 1b 73 bd a6 dc d1 bd
       -0.06776613 -0.14109033 -0.05935282 -0.102471635
000050 ba ab f7 3b 2a 1b 7f bd eb d3 b7 3d af c9 4c bd
       0.007558313 -0.062281765 0.08975967 -0.049997028
000060 89 28 17 be d2 96 49 be e8 14 1f bc 71 d6 f2 bd
       -0.14761557 -0.1968644 -0.009709574 -0.11857308
000070 dc c5 17 bd 66 9e 73 bc 24 f1 11 be f4 d8 ff 3c
       -0.037053928 -0.014869308 -0.14252144 0.031231381
000080 5c 5b bd bc 32 a4 01 be 48 a7 a0 bc 3d e3 27 be
       -0.023114853 -0.12660292 -0.019611016 -0.16395278
000090 be 21 63 be 53 e1 2b bd dd 8b d4 bd f5 3a d9 bd
       -0.2218084 -0.041962933 -0.10378239 -0.10606948
0000a0 91 a0 ee bd 8d 55 10 3c ab 37 f2 bd 17 fd 2a be
       -0.11651719 0.008809459 -0.11827024 -0.16698109
0000b0 a6 34 18 be 74 13 5e be 48 9e 13 bd 60 85 f7 bd
       -0.14863834 -0.21687108 -0.03603962 -0.12085986
0000c0 a6 f0 67 bd 28 19 b7 bb 49 e8 fb bc 30 39 08 bc
       -0.056625985 -0.0055877157 -0.03075041 -0.008314416
0000d0 5b 3a 3b bd c0 0f df bd a0 b3 fa bd 92 88 f0 bd
       -0.04570995 -0.10891676 -0.12241292 -0.11744799
0000e0 25 b9 1f 3d cf b5 fb bd c4 1c 0a bb a6 e0 0d 3d
       0.038994927 -0.122905366 -0.0021074275 0.03463807
0000f0 10 55 0c be 88 94 b6 bd 43 f5 90 3c a2 67 96 bd
       -0.13704324 -0.08915049 0.017695075 -0.07343985
000100 d0 76 43 be 15 3c 9b bd d2 1a 15 be 3e c2 21 be
       -0.19088292 -0.07579819 -0.14561012 -0.15796754
000110 0f 05 1d bc 9e 72 26 be d0 b1 5c 3c 66 12 5c be
       -0.009583726 -0.1625466 0.013470128 -0.21491393
000120 aa 57 c4 bd 37 70 36 3a d3 6d 8e be 01 ee 3f be
       -0.09587033 0.00069594703 -0.27818164 -0.18743135
000130 c2 1a 0d bc 0d 68 f7 bd fe 78 88 3d 81 02 5f bd
       -0.008612337 -0.12080393 0.066637024 -0.054445747
000140 f9 91 d6 bc 05 27 5d 3d 09 24 70 3b c2 6a 61 bd
       -0.026192652 0.05399229 0.0036642572 -0.055033453
000150 e1 97 de bd f9 8b 86 bd 5d 72 ae bd 20 e8 a0 bd
       -0.10868812 -0.065696664 -0.08517907 -0.07856774
000160 55 c2 e6 bd cc 6c 81 bd 70 07 87 bc 15 3e b1 bd
       -0.11267535 -0.063195795 -0.016483039 -0.08654419
000170 09 ed 3d be d9 bf 65 3d c0 0d 80 3b 46 41 f8 3c
       -0.18547453 0.056091163 0.003907889 0.030304562
000180 88 2e db 3c 58 24 e0 3c 3d e5 b9 3d ec d4 34 be
       0.026755586 0.02736108 0.09076927 -0.17659348
000190 76 5d 53 bc d8 60 ee bc 01 6d b3 bc f8 82 b6 bd
       -0.012900701 -0.029098913 -0.021902563 -0.08911699
0001a0 ac 2e 5b bd f4 34 83 3d 8e 38 04 bd b0 e7 d3 39
       -0.053511307 0.064065844 -0.032280497 0.00040417677
0001b0 7a f4 9e 3d 2d e9 73 3b 8b 85 f2 3a 86 ae b0 ba
       0.07761474 0.003721784 0.0018502934 -0.0013479746
0001c0 60 0c 1e be f4 00 07 be 6a 39 57 bd 3e 37 17 bc
       -0.15434408 -0.13183957 -0.05254499 -0.009229479
0001d0 55 ac c6 bd 8c e2 51 bd 04 b8 d4 bc 7e 94 ca 3d
       -0.097008385 -0.051241443 -0.025966652 0.09891604
0001e0 28 92 7f bd d6 b8 2a bd 28 55 2b be d3 ea 1e bd
       -0.062395245 -0.04168018 -0.16731703 -0.038798165
0001f0 20 29 1c be 80 1b 02 be 59 37 0c bd b8 a9 a6 3c
       -0.15250063 -0.12705803 -0.03423247 0.0203446

conv2.lin_r.weight f4 [128, 128]
000000 36 9e ff 3d f8 d3 39 bd c3 99 c2 3d f5 68 01 be
       0.12481348 -0.045368165 0.09501984 -0.12637694
000010 98 c8 c2 ba 56 9c cc bd ee 28 2c 3e 6d 50 4f bc
       -0.0014860807 -0.09990756 0.16812488 -0.012653452
000020 a1 a4 67 3d c8 b3 ac bb 3b b3 9c 3d 53 f0 82 3c
       0.056553487 -0.005270455 0.07651373 0.015983736
000030 e1 43 ff bc 6e a6 98 3d 04 d8 19 3a 7b 8a 78 3d
       -0.031160297 0.07453619 0.00058686757 0.06067894
000040 f2 43 86 bd 25 08 48 bd 73 ad a6 bc a9 dd d5 bc
       -0.06555928 -0.048835892 -0.020346379 -0.026106672
000050 23 ed 80 bd c9 9a 81 3d 39 c9 a6 bd 90 1c 87 bd
       -0.0629523 0.06328351 -0.08143849 -0.06597245
000060 63 1f bf 3d e7 e1 24 be 0f 95 81 bd ff 9a b6 bd
       0.093321584 -0.161018 -0.06327259 -0.08916282
000070 49 dd c2 3c 9c 07 78 3c 78 05 19 3d e7 02 0f 3b
       0.023787158 0.015138533 0.03735873 0.0021821798
000080 56 1e bd 3d 60 40 ca 3b ed a4 95 3d 81 7b 70 bc
       0.09234302 0.006172225 0.07306848 -0.014677883
000090 d2 48 b6 3b d8 40 85 3c 36 59 cf bc 5e 50 65 3c
       0.00556288 0.016266271 -0.025311094 0.013996212
0000a0 d8 ba 20 3d 43 75 ff 3c 25 b2 7c bd 7d 71 87 bd
       0.039240688 0.031183844 -0.06169333 -0.06613443
0000b0 34 14 a2 3d 82 d8 92 3d 22 e9 2f bd 47 29 d7 3b
       0.0791401 0.07170202 -0.042946942 0.0065662
0000c0 7a 53 d6 3d 31 f3 8b 3d 01 98 73 3d fd 2e 84 bc
       0.10465141 0.068334945 0.059471134 -0.016135687
0000d0 fc 3f 27 bd b2 fa 09 be d3 fd 33 3d c9 62 2a 3d
       -0.040832505 -0.13474539 0.043943238 0.041598115
0000e0 d7 3e 5e 3d 6e 6a 4a 3d 1d 11 26 3c b1 9d e5 bd
       0.054259147 0.049417906 0.010135916 -0.11211718
0000f0 7b 14 03 3d 0c 40 e5 bd e2 16 1f bd d3 92 93 bd
       0.032001954 -0.111938566 -0.038840182 -0.07205739
000100 14 b4 4a bd 43 42 42 bd e2 9c 51 3c a0 b0 a1 3d
       -0.049488142 -0.047426473 0.012793751 0.07895017
000110 6c 15 52 bd 2b 07 79 bd 84 8d 6c bd d0 66 95 bd
       -0.05128996 -0.06079785 -0.057752147 -0.072950006
000120 99 a0 53 3d e2 cd 5b 3d d2 e1 0d be 72 bd 32 bd
       0.05166683 0.053663142 -0.13855675 -0.0436377
000130 64 a6 a8 3c 69 75 8b bd 78 23 08 be dd e3 b0 3d
       0.020587154 -0.068095036 -0.1329478 0.086372115
000140 f7 a7 7a 3d 8c 95 89 bc c7 9a d9 3d d0 62 71 bd
       0.06119534 -0.016794942 0.106252246 -0.058932126
000150 6f f9 9f 3d f9 67 57 bd ab db 3a 3d 19 53 d7 bd
       0.078112476 -0.05258939 0.045619648 -0.105138965
000160 2d 91 5f 3b 7d 1d 98 3c 3b 93 ae 3c 93 d1 0b 3b
       0.003411363 0.018568749 0.02131044 0.0021334633
000170 f6 f5 28 bc 68 51 1b 3d a4 56 6a b9 bc 13 26 3d
       -0.010312548 0.037919432 -0.00022348255 0.040546164
000180 a2 42 ac 3d 3d b0 a0 3d 87 70 ec bb a5 5a 1c 3d
       0.08411147 0.07846115 -0.0072155627 0.038172383
000190 e4 d2 aa 3c bf 10 c2 3d 49 4d 3d bd a8 00 c7 3d
       0.020852514 0.0947585 -0.046216283 0.09716922
0001a0 be fa 2b bd fc 9f 41 3d 6e c5 2d bd 5a 95 c9 bc
       -0.041987173 0.047271714 -0.04242461 -0.02460735
0001b0 62 93 0e bd d3 3b b5 bb 3b 18 4e 3d f0 80 bf bc
       -0.034808524 -0.0055308132 0.050316077 -0.023376912
0001c0 01 c7 11 bc c4 36 96 3c e0 bd de bd f0 9e 84 3c
       -0.008897544 0.018336661 -0.108760595 0.016189069
0001d0 0b 6f f0 3d f7 0c 31 be b3 8d 94 3d 98 83 4d 3d
       0.1173993 -0.17290102 0.072535895 0.050174326
0001e0 1c 0d 99 bc 83 05 2d 3d f4 2b 93 bd e2 7f 1a 3c
       -0.018683009 0.042241585 -0.07186118 0.009429904
0001f0 d3 d0 07 3e 6e 07 db bc d7 bd c1 bd b7 4b 8f 3c
       0.13263254 -0.026736941 -0.09460037 0.017492158
000200 64 a6 7c bd 1c 8c c3 3c 5d 07 bb bd f7 e4 d8 3c
       -0.06168212 0.02387052 -0.09132264 0.026476366
000210 f4 bd 3a bd ee 73 c4 bd c0 64 12 bd 81 eb 35 3d
       -0.04559131 -0.09592424 -0.035740614 0.044414047
000220 e4 86 b5 bd 2d 35 08 3d bd 3a 1f 3c 7c 8a 6d 3c
       -0.08863619 0.033253837 0.009718594 0.014498349
000230 2b ee c5 bc df dd 0f be ea c4 0c bd 86 cf 9f 3d
       -0.024161419 -0.14049481 -0.03436748 0.07803254
000240 8a ea ca 3c 34 35 81 bd 8c 43 58 3d 91 61 33 3d
       0.02477004 -0.06308976 0.052798793 0.04379422
000250 e6 2f 27 3d 65 90 c9 bc f7 63 3c 3d 93 4f fa 3c
       0.040817164 -0.024604985 0.04599377 0.030555522
000260 fa 56 db bc 31 1a 80 bb e3 3f 0b bd ae fb de 3c
       -0.026774872 -0.0039093723 -0.033996474 0.02721962
000270 b5 81 95 3d a8 a3 b2 bd 6d 88 2e 3d e3 5b 76 3c
       0.0730013 -0.08722621 0.042610575 0.015036556
000280 aa ea 9d 3d 97 c9 4e 3d 13 26 34 3d 9b ea 84 bc
       0.07710774 0.05048522 0.043981623 -0.01622515
000290 ae e9 d0 3d 4c dc 81 bd 66 95 2e 3c 67 ef 53 bd
       0.10200821 -0.063408464 0.010655737 -0.051741984
0002a0 c3 5b 3b bd c3 57 13 bd 92 3e df 3b 3b 66 b6 3d
       -0.045741808 -0.035972368 0.006812879 0.08906218
0002b0 a0 a1 a7 3d 3f f1 8e bd 79 88 02 3d df c3 6d bd
       0.081851244 -0.06979608 0.03186843 -0.058048125
0002c0 3d 6e 84 3d a0 88 d5 3d 53 49 6a bd a9 d4 73 bd
       0.06466339 0.1042645 -0.057198834 -0.05952898
0002d0 9a 49 1c bd ec 95 0c 3e 71 4a 3f 3e 88 fb 9a bd
       -0.03815613 0.13729066 0.18680741 -0.07567507
0002e0 66 2d 98 bc 2b b7 d5 3c ca 8a 20 bd 49 12 3c be
       -0.018576335 0.026088318 -0.03919486 -0.1836635
0002f0 30 01 a6 3b c5 08 92 3d 3a 69 af bc d7 d3 3c bd
       0.0050660595 0.07130579 -0.02141248 -0.046100464
000300 bd 97 71 3d 59 42 24 bc 0e 53 d1 3c b5 19 4d 3d
       0.0589826 -0.010025584 0.025552299 0.050073344
000310 16 1b 62 be 28 96 9d bd 39 b7 71 bd 6f 8c d6 3b
       -0.22080645 -0.07694656 -0.059012625 0.0065475027
000320 82 e6 1b 3d 6c 01 3e 3d ea 4a 22 ba 24 ca 35 3d
       0.038061626 0.046388075 -0.00061909726 0.04438223
000330 d7 22 f0 bc ad 3b 87 bd 4a db a8 3d dd 19 89 3d
       -0.029313488 -0.06603179 0.08244951 0.06694386
000340 63 f5 0b bd a5 b2 a2 bd c5 3f b1 3d 9c 77 7f bd
       -0.034169566 -0.0794423 0.08654741 -0.062369928
000350 69 03 c4 3d d8 bd 75 bd 67 c7 33 bc ed b3 07 bd
       0.09570963 -0.059995502 -0.010972834 -0.033130575
000360 74 85 48 3d a4 dd bf bc 88 4b 74 bd 5e 15 96 3b
       0.048955396 -0.023421116 -0.059642345 0.004580184
000370 5d ec 97 bd f6 4e 3f 3d 6e 9e 8c 3d 6f f7 b3 3c
       -0.074181296 0.046706162 0.068661556 0.021968571
000380 f9 78 88 bd fa 5c 77 3d ae 07 3b bd 58 77 9b 3d
       -0.06663699 0.060391404 -0.04566162 0.075911224
000390 8e f6 22 3d e0 66 a6 3d 85 aa 40 3c 4a cf 42 bd
       0.039785914 0.081250906 0.011759405 -0.047560968
0003a0 fc 4d b2 bd 48 45 96 bd 3a 44 88 bd 43 df 6e 3c
       -0.087062806 -0.07337433 -0.06653638 0.014579597
0003b0 d3 7b 1f 3d 47 4f 76 bc 03 86 bb 3c 0c 6e 54 bd
       0.038936447 -0.01503355 0.02289105 -0.05186276
0003c0 59 11 0c be d2 9f 96 bc 0d 38 c4 3c 6f 13 96 bd
       -0.13678493 -0.018386755 0.023952508 -0.073279254
0003d0 1f 80 df bc f9 79 34 be a3 4e d4 3c f7 7e bf 3c
       -0.027282773 -0.17624654 0.025916403 0.023375971
0003e0 01 fd 78 3d c0 e0 c0 bd e8 5b bc 3d ef 2d 93 bd
       0.06078816 -0.09417868 0.09197217 -0.071864955
0003f0 28 db 78 3d 59 a3 d0 bc b9 76 39 3d 99 cb 8e bd
       0.06075588 -0.025468515 0.04527924 -0.06972427

bn1.weight f4 [128]
000000 b5 7f 82 3f 5a f5 7e 3f 66 78 81 3f e8 1f 83 3f
       1.0195223 0.99593127 1.0114868 1.0244112
000010 91 d5 82 3f ba 6c 7e 3f f3 84 84 3f c4 a9 7e 3f
       1.0221425 0.99384654 1.0353073 0.9947779
000020 a0 33 82 3f 76 a1 84 3f b8 3e 75 3f e5 19 82 3f
       1.0172005 1.0361774 0.95798826 1.0164152
000030 84 08 7e 3f 87 67 88 3f 5b 3a 85 3f f6 66 7d 3f
       0.99231744 1.0656594 1.0408434 0.9898523
000040 75 13 7b 3f 0a 06 6b 3f 29 70 80 3f 9f 94 72 3f
       0.98076564 0.9180609 1.0034229 0.9475803
000050 70 b6 82 3f 1d b2 7a 3f 0d df 70 3f e1 0d 79 3f
       1.0211926 0.9792803 0.9409035 0.972868
000060 0f c0 80 3f 9d f1 7e 3f e1 47 6a 3f 2e 72 80 3f
       1.0058612 0.9958742 0.9151593 1.0034845
000070 2c 4a 78 3f b4 8c 7b 3f 30 25 82 3f 83 6e 7d 3f
       0.9698818 0.9826157 1.0167599 0.9899675
000080 b3 03 7c 3f 76 cf 63 3f f1 d6 81 3f 40 60 7c 3f
       0.98443145 0.88988435 1.014372 0.98584366
000090 e2 d5 82 3f 1e 5d 7f 3f 09 bb 85 3f 24 28 80 3f
       1.0221522 0.9975146 1.0447704 1.001225
0000a0 ca 86 7b 3f 3a 3d 6c 3f 0c 16 77 3f 0e 76 5e 3f
       0.98252547 0.92280924 0.96518016 0.8689889
0000b0 9e 6a 7b 3f 14 9e 7d 3f 33 b0 64 3f 08 ba 7e 3f
       0.9820956 0.99069333 0.8933136 0.9950261
0000c0 d6 3a 7c 3f 7b 0e 7e 3f b3 d7 66 3f f3 18 86 3f
       0.98527277 0.99240845 0.9017288 1.0476364
0000d0 0b d6 7d 3f ae e0 88 3f 3d 98 83 3f 15 1c 80 3f
       0.9915473 1.0693567 1.0280834 1.000857
0000e0 8c 2e 76 3f 19 3e 77 3f 23 4d 7c 3f 80 05 7e 3f
       0.96164775 0.9657913 0.985552 0.9922714
0000f0 64 9d 7d 3f c4 58 73 3f fc 7a 6a 3f 15 f4 7d 3f
       0.99068284 0.9505732 0.9159391 0.99200565
000100 4c 6e 87 3f 66 47 7c 3f 7e d8 80 3f b5 c1 7c 3f
       1.0580535 0.98546445 1.0066068 0.98733073
000110 3e f5 7f 3f 7a 4b 80 3f b0 2f 83 3f 45 86 73 3f
       0.99983585 1.0023034 1.0248928 0.95126754
000120 cc 96 83 3f 05 6e 7e 3f f6 da 7e 3f ef dc 86 3f
       1.0280395 0.99386626 0.9955286 1.0536174
000130 11 3b 84 3f 84 e1 78 3f 1b c7 84 3f b8 5b 81 3f
       1.0330526 0.9721911 1.0373262 1.0106115
000140 a5 55 79 3f 33 cb 86 3f 89 0e 7d 3f 50 b1 82 3f
       0.9739631 1.0530761 0.98850304 1.0210361
000150 44 7e 7f 3f d5 ab 7d 3f 25 04 75 3f 1d 19 6f 3f
       0.9980204 0.9909032 0.9570945 0.93397695
000160 98 bb 82 3f d8 a4 7e 3f f1 89 73 3f 86 44 74 3f
       1.0213499 0.9947028 0.95132357 0.9541706
000170 fa fa 7e 3f c6 46 86 3f 64 bd 71 3f d8 01 73 3f
       0.9960171 1.0490348 0.9442961 0.9492469
000180 9d 38 80 3f f1 f2 7e 3f 63 b7 7e 3f a5 b4 7b 3f
       1.0017277 0.9958945 0.99498576 0.98322517
000190 7b 5d 61 3f 79 18 79 3f e5 cb 7c 3f c8 83 80 3f
       0.88033265 0.9730297 0.9874862 1.0040216
0001a0 30 c2 77 3f e7 aa 79 3f 7a 23 82 3f b3 03 65 3f
       0.9678068 0.975264 1.0167077 0.8945877
0001b0 a5 a7 76 3f 08 92 79 3f b0 fc 68 3f d6 d2 57 3f
       0.96349555 0.9748845 0.9101057 0.84306085
0001c0 13 32 76 3f cc 68 77 3f 7e 7d 81 3f 83 59 84 3f
       0.9617016 0.9664428 1.0116422 1.0339817
0001d0 bf 1b 6b 3f de bc 7e 3f a3 b4 7e 3f 75 1e 7d 3f
       0.9183921 0.9950694 0.9949438 0.988746
0001e0 f0 e7 80 3f c1 5f 85 3f 0d 37 8c 3f 93 db 89 3f
       1.0070782 1.0419847 1.09543 1.0770134
0001f0 9a 3c 7f 3f e9 2d 82 3f b4 0d 84 3f cc 92 60 3f
       0.99701846 1.0170261 1.0316682 0.87723994

bn1.bias f4 [128]
000000 24 2f 3e be 78 7c ad 3d e7 87 37 be f1 69 18 3c
       -0.1857267 0.08471006 -0.17922936 0.009302602
000010 a9 d8 9c 3d 4d cb fa 3c 59 d1 82 bd bd c7 8d bd
       0.07658512 0.03061452 -0.06387586 -0.06922863
000020 f8 b0 9e bd 02 95 0c be 9f ef 7a be b4 38 44 bd
       -0.07748598 -0.13728717 -0.2450547 -0.04790564
000030 da 59 38 3e 9b 83 29 bb 1a a0 58 3d 5b d1 50 3d
       0.18003026 -0.0025865796 0.05288706 0.050980907
000040 07 16 09 3d 04 63 fd 3d 53 59 aa bd da b3 df bd
       0.033468273 0.12372401 -0.083178185 -0.10922976
000050 de ac 38 3d 7e f8 6c bd 07 ce dc 3c bc 91 88 bd
       0.045086734 -0.057854168 0.02695371 -0.066684216
000060 4e 02 de bc 41 47 ff 3d 8b 48 89 3d 49 9e 8c bc
       -0.027100708 0.124647625 0.067032896 -0.01716532
000070 71 84 66 3d f9 58 51 3d 88 9b 09 bd 10 df 93 3d
       0.05627865 0.05111024 -0.03359559 0.0722028
000080 cf 0a aa bd 17 bd ad 3d 2c fb c1 bd 6f d4 f4 bd
       -0.08302843 0.08483332 -0.09471735 -0.11954581
000090 fa ac 3c 3c 89 1c 78 3d da 37 92 3d 15 dc c6 bd
       0.01151585 0.06057409 0.07139559 -0.09709946
0000a0 77 d4 21 3e 4a 99 0c 3d b9 0d 77 3d 44 60 82 be
       0.15803705 0.034325875 0.06031582 -0.2546407
0000b0 f2 a0 0d bd c6 1e 33 be e5 6f 26 3c 74 6a 92 3b
       -0.034577318 -0.17492208 0.010158514 0.0044682566
0000c0 53 e0 c9 bd fa 17 7d be 91 9e 38 3d 3e c9 2b bd
       -0.098572396 -0.24716178 0.045073096 -0.041939966
0000d0 81 d6 7c bc 11 9f 35 3e 65 5d 57 be 8e cb 71 3d
       -0.015432001 0.1773646 -0.21031721 0.059032016
0000e0 94 39 3d be e5 39 80 bd b3 68 31 be 18 db 48 3e
       -0.18478996 -0.062610425 -0.17325096 0.19614828
0000f0 d5 bd 7e 3d 3b 13 b8 3d 24 ee 70 3c 46 09 77 bd
       0.062192757 0.08988043 0.014705215 -0.06031158
000100 9b 66 36 3e 83 63 2f bb ef 14 6d bb 63 ae 82 3c
       0.17812578 -0.0026762194 -0.0036175807 0.015952295
000110 d4 5b 7f 3e 89 ad 29 bd 02 5b b5 3c 9f 2f 9a bd
       0.24937373 -0.04142526 0.022138122 -0.07528614
000120 6c 3e c2 3b c3 f5 24 be 05 94 35 3e 38 57 67 3d
       0.0059278514 -0.16109376 0.17732246 0.056479663
000130 5e e8 09 3d 29 9d c4 bc 4a 3b 6d 3d a3 3d ea bd
       0.03366887 -0.024000721 0.05791787 -0.114375375
000140 22 bb 01 be 8d 55 7c bc 3e 34 88 be 0f f5 f1 bc
       -0.12669042 -0.015401256 -0.26602358 -0.029535798
000150 95 22 24 be fc c7 b7 3d 47 c0 47 be a4 d8 29 3d
       -0.16028817 0.08973691 -0.19506942 0.04146637
000160 46 79 87 3a 91 9f 10 3e ce 98 96 3d ad 80 20 3d
       0.0010335825 0.1412337 0.07353364 0.039185215
000170 ca 52 87 bd 54 4e 0f be 54 89 34 bd e1 2c 5b 3d
       -0.06607588 -0.13994724 -0.04407628 0.053509597
000180 84 25 a4 bd 3c 5d a7 bd d6 a9 e6 3d 42 29 e1 bd
       -0.08014968 -0.0817208 0.112628624 -0.109941974
000190 cd 9b 06 be b1 6e ab bd f4 26 43 bc 1e 3e 83 bd
       -0.13145371 -0.08370722 -0.011911143 -0.06408332
0001a0 bf d9 9b 3d 12 67 30 bd 93 23 34 bd 59 35 59 3d
       0.07609891 -0.043067046 -0.04397924 0.053029392
0001b0 71 30 b4 bd e0 5c af be 15 82 02 3e 40 59 89 3d
       -0.08798302 -0.34250546 0.12744935 0.06706476
0001c0 34 80 07 be 70 2f a3 bd b2 0a 94 3d 89 33 90 bd
       -0.132325 -0.07968032 0.072286025 -0.070410796
0001d0 35 d0 e3 bc 6f 0b 22 3e c6 8d d1 bd 49 3d 00 be
       -0.027809242 0.15824674 -0.10232119 -0.12523378
0001e0 ef 5e fd 3d 87 27 84 be 03 c2 8f 3d 11 c2 32 bd
       0.12371623 -0.25811407 0.07019427 -0.043642107
0001f0 87 9c 0d bd 8d 9f ce bc 65 48 f9 3c f5 64 69 bd
       -0.034573104 -0.025222564 0.030430028 -0.056981046

bn1.running_mean f4 [128]
000000 fd 68 11 3b 6a a7 0e 3f cb bc ac 3b 04 00 00 00
       0.0022187822 0.55724204 0.0052715293 6e-45
000010 8b 36 f0 3e 04 00 00 00 04 00 00 00 38 4a 61 2c
       0.46916613 6e-45 6e-45 3.2015623e-12
000020 52 48 24 3f 9e 53 10 3f be 93 8e 3d 04 00 00 00
       0.6417285 0.5637759 0.06961773 6e-45
000030 04 00 00 00 6a 31 09 3f 47 88 64 3f 04 00 00 00
       6e-45 0.53591025 0.8927044 6e-45
000040 aa a0 eb 3b 47 cd 59 3c f8 f2 ea 32 84 25 2c 3f
       0.0071907835 0.013293571 2.7351675e-08 0.67244744
000050 04 00 00 00 04 00 00 00 04 00 00 00 04 00 00 00
       6e-45 6e-45 6e-45 6e-45
000060 04 00 00 00 04 00 00 00 10 57 cb 3c 04 00 00 00
       6e-45 6e-45 0.024821788 6e-45
000070 04 00 00 00 04 00 00 00 2c a9 55 3f 85 67 bc 3e
       6e-45 6e-45 0.8346126 0.3679773
000080 e3 e7 cc 14 9e 02 1f 3f 04 00 00 00 04 00 00 00
       2.0690199e-26 0.6211337 6e-45 6e-45
000090 04 00 00 00 04 00 00 00 e2 32 f7 3e 08 33 3b 3d
       6e-45 6e-45 0.48281008 0.045702964
0000a0 04 00 00 00 6b a8 ac 3d 62 6e 1f 3f 01 fe 96 3e
       6e-45 0.08430561 0.62277806 0.29490665
0000b0 78 a7 4c 3f 65 c0 b9 3e 90 9e ab 3e 04 00 00 00
       0.7994304 0.36279598 0.3351941 6e-45
0000c0 04 00 00 00 04 00 00 00 61 78 e0 3e b6 f2 c8 3e
       6e-45 6e-45 0.43841842 0.39247674
0000d0 04 00 00 00 7d 3d f4 3e e0 fb 96 15 04 00 00 00
       6e-45 0.47703162 6.0981906e-26 6e-45
0000e0 f5 0a 7a 03 04 00 00 00 91 45 1d 3e 04 00 00 00
       7.3480975e-37 6e-45 0.15358569 6e-45
0000f0 6a 17 29 3f 01 bc 06 3f d7 a6 be 3d ac 03 b4 3e
       0.6605135 0.5263062 0.09309166 0.3515905
000100 cd 5f 3f 3f 04 00 00 00 04 00 00 00 04 00 00 00
       0.74755555 6e-45 6e-45 6e-45
000110 00 00 00 00 90 a7 32 0f 90 f6 b2 34 cd 5d b4 00
       0.0 8.808349e-30 3.3334481e-07 1.6564039e-38
000120 70 28 b2 32 04 00 00 00 04 00 00 00 b9 41 c9 3e
       2.0740316e-08 6e-45 6e-45 0.39307955
000130 95 21 8d 31 04 00 00 00 04 00 00 00 2c 00 00 00
       4.107458e-09 6e-45 6e-45 6.2e-44
000140 d9 63 08 3f 04 00 00 00 04 00 00 00 a8 83 eb 3e
       0.53277355 6e-45 6e-45 0.45998883
000150 04 00 00 00 00 a7 d8 3e 4b bd 50 3f 76 1f 1d 3f
       6e-45 0.4231491 0.8153884 0.6137613
000160 04 00 00 00 04 00 00 00 04 00 00 00 00 c8 1d 3c
       6e-45 6e-45 6e-45 0.009630203
000170 04 00 00 00 04 00 00 00 04 00 00 00 9b 7a 5f 3e
       6e-45 6e-45 6e-45 0.21824114
000180 c8 c3 19 3c 04 00 00 00 91 c9 43 3d 04 00 00 00
       0.009385057 6e-45 0.04779965 6e-45
000190 8a d7 2c 3f e0 ca 68 3a 04 00 00 00 12 a1 99 3e
       0.67516387 0.00088803284 6e-45 0.300057
0001a0 0b cb 31 3f 04 00 00 00 36 eb 1d 3f 0a e2 1e 3e
       0.69450444 6e-45 0.6168703 0.15515915
0001b0 f4 a0 e6 3e 16 aa 52 3c a6 83 49 3e 12 9e 9e 3e
       0.45044672 0.012857934 0.19679126 0.30979973
0001c0 1f 89 0d 3f 33 8b f7 3e 52 81 31 31 04 00 00 00
       0.55287355 0.48348388 2.58304e-09 6e-45
0001d0 0a 88 b5 3f 04 00 00 00 04 00 00 00 04 00 00 00
       1.4182141 6e-45 6e-45 6e-45
0001e0 97 75 ec 3e 48 d7 d8 3e 09 6b fb 3e b9 71 f5 3e
       0.46183464 0.42351747 0.491051 0.47938326
0001f0 50 4a 20 3f 9f c1 8f 29 04 00 00 00 ea d7 fd 3e
       0.6261339 6.3840636e-14 6e-45 0.49578792

bn1.running_var f4 [128]
000000 6d 85 09 3a 74 70 9c 3c 2b 5d bf 39 04 00 00 00
       0.0005246017 0.01909659 0.00036499774 6e-45
000010 86 bc 0c 3c 04 00 00 00 04 00 00 00 fe ad a5 28
       0.008589869 6e-45 6e-45 1.8394137e-14
000020 1c 28 01 3d 7c ee 1d 3d 05 33 7d 3c 04 00 00 00
       0.031532392 0.038557515 0.015454059 6e-45
000030 04 00 00 00 6f 77 70 3c 5b ca cd 3c 04 00 00 00
       6e-45 0.014676913 0.025120905 6e-45
000040 8c 13 4a 3a 43 d3 1d 3b e4 56 85 2f b9 e1 c9 3d
       0.0007708601 0.002408222 2.4254299e-10 0.09857506
000050 04 00 00 00 04 00 00 00 04 00 00 00 04 00 00 00
       6e-45 6e-45 6e-45 6e-45
000060 04 00 00 00 04 00 00 00 ac 7f a1 3b 04 00 00 00
       6e-45 6e-45 0.0049285498 6e-45
000070 04 00 00 00 04 00 00 00 c0 91 32 3d 11 fe 37 3d
       6e-45 6e-45 0.04359603 0.04492003
000080 53 87 85 13 37 d3 26 3e 04 00 00 00 04 00 00 00
       3.370736e-27 0.1629151 6e-45 6e-45
000090 04 00 00 00 04 00 00 00 52 a7 92 3c 6c 98 c9 3b
       6e-45 6e-45 0.01790205 0.0061522033
0000a0 04 00 00 00 2a 1f 17 3d 5f e4 82 3c f8 5b 76 3e
       6e-45 0.036894955 0.015978036 0.24058521
0000b0 36 bd 05 3e 80 1f 63 3c b8 ab 0a 3e 04 00 00 00
       0.1306046 0.013862491 0.13542068 6e-45
0000c0 04 00 00 00 04 00 00 00 50 2c 51 3e c6 6e 8f 3c
       6e-45 6e-45 0.2042706 0.017508876
0000d0 04 00 00 00 fc e1 a9 3c 88 b2 d1 13 04 00 00 00
       6e-45 0.02073764 5.2935063e-27 6e-45
0000e0 e4 06 b3 01 04 00 00 00 f3 e2 1b 3c 04 00 00 00
       6.5764103e-38 6e-45 0.009514558 6e-45
0000f0 51 67 97 3c f4 b7 50 3d 30 31 cc 3c b2 be bc 3c
       0.018481882 0.05095668 0.024925798 0.02304015
000100 8b 8e ef 3c 04 00 00 00 04 00 00 00 04 00 00 00
       0.029242774 6e-45 6e-45 6e-45
000110 04 00 00 00 ae 35 ca 0b 5b 42 13 32 67 f1 08 00
       6e-45 7.788834e-32 8.571614e-09 8.21283e-40
000120 42 61 96 2f 04 00 00 00 04 00 00 00 df 03 67 3c
       2.7353947e-10 6e-45 6e-45 0.014100044
000130 a9 45 ae 2d 04 00 00 00 04 00 00 00 04 00 00 00
       1.9812445e-11 6e-45 6e-45 6e-45
000140 b6 e5 7d 3c 04 00 00 00 04 00 00 00 fe d9 6d 3c
       0.015496662 6e-45 6e-45 0.014517305
000150 04 00 00 00 83 e1 9d 3c d6 22 1d 3e 18 09 bb 3d
       6e-45 0.019272571 0.1534532 0.09132594
000160 04 00 00 00 04 00 00 00 04 00 00 00 ad f3 91 3a
       6e-45 6e-45 6e-45 0.0011135243
000170 04 00 00 00 04 00 00 00 04 00 00 00 44 22 90 3d
       6e-45 6e-45 6e-45 0.07037786
000180 84 e5 90 3a 04 00 00 00 be 77 94 3c 04 00 00 00
       0.0011054729 6e-45 0.018123504 6e-45
000190 d5 01 12 3e 80 b4 f9 37 04 00 00 00 77 05 90 3c
       0.14258511 2.9767165e-05 6e-45 0.01758073
0001a0 07 b7 93 3d 04 00 00 00 bf 83 81 3c 8d 3f 94 3d
       0.07212644 6e-45 0.015809892 0.07238684
0001b0 fb d9 b6 3c 6a a3 65 3a ff 46 49 3d 8d 14 21 3e
       0.022320738 0.00087600073 0.049139973 0.15730496
0001c0 f4 d1 a4 3d aa f3 fc 3c 98 4c ee 2c 04 00 00 00
       0.08047858 0.030877907 6.7728705e-12 6e-45
0001d0 54 a0 f0 3e 04 00 00 00 04 00 00 00 04 00 00 00
       0.4699732 6e-45 6e-45 6e-45
0001e0 08 d6 fa 3b 3b a6 55 3c 79 ad b9 3c dc dc 39 3c
       0.007654909 0.013040121 0.022665726 0.011344161
0001f0 e1 4a 05 3d 25 cb 8e 26 04 00 00 00 c0 a3 cc 3d
       0.032542113 9.908292e-16 6e-45 0.0999217
