GNN-CICIDS2017/Binaryclass/src/checkpoints/NN_best.pth (torch, 196147 bytes, 13 tensors)

lin1.weight f4 [128, 234]
00000000: 0af4 96bd f6e5 62bc 8a97 0ebd 1e39 cfbc
00000010: 117a 71bd f1df ad3c bdc0 84bd b1f5 82bc
00000020: aa45 423c 5357 04bd 578c e63c 9cbd 13bb
00000030: aa10 e53c 0f74 063d c85f 1ebd 23bf 8c3c
00000040: 0cbe 02bd 5995 863c 48c2 33bd 9494 9e3c
00000050: da35 f03a 175b 14bd a894 2bbd 7be3 e43b
00000060: a7d5 523d 94a9 093d b7c5 ecbb 4f94 7cbc
00000070: 2176 143d e99a 53bd 7ca5 3c3c b174 e5bc
00000080: ceb1 f43c d793 08bd b369 d2bb c455 493c
00000090: 0574 193d f7c4 99bc 7f37 4d3d e362 88bd
000000a0: 6565 adbc 46a2 99bd 70f2 92bb 93dd bb3b
000000b0: f4ea 1fbd 7cb7 833c b3e6 1abc ffc4 75bd
000000c0: bfc3 273d e6cb 023d 2b55 cc3c 7ab3 253d
000000d0: 6694 b83c 534f f83c c272 2d3d e74a 82bc
000000e0: 8254 67bd 416c 21bd 81a3 42bc 9441 43bc
000000f0: de4f 29bc 1358 e33c ccab 353c edd8 64bd
00000100: 827a 7ebc e27a 74bc 011d 013d 95bb 0abd
00000110: 233d 1bbd 062c 9fbc c792 dbbc f0c7 debc
00000120: 39b7 96bd a8ca 3f3d 07e6 ba3c f717 1cbd
00000130: 015c 47bd 990e fdbb 7d7d ca3c 4f50 43bd
00000140: 8846 f6bc 89eb 983c 0441 31bd 3385 72bc
00000150: 7798 63bd 3ad8 483d cd97 be3c 78e1 92bd
00000160: bf48 34bd 1976 553c 3e37 a6bb cb8c f13b
00000170: 1080 83bd 4dae 31bd 9ce7 dd3c 416f 63bd
00000180: 829c bcbc a8bc af3c d8a0 ce3c b338 86bb
00000190: b8d7 1b3c f118 a33c 65d3 88bc 22bf 76bc
000001a0: 197a 463d 2669 563d 4316 e43c 2ce3 14bd
000001b0: 144e 87bd f1fe 92bd aacf 16bc 2e24 12bd
000001c0: b294 e1bc bdd2 adbc d52d 6a3d a4e9 423d
000001d0: 67a9 9dbc 5ada febc f7e1 c33c 01e4 6ebc
000001e0: 590f 91bd 8eda f93b 67d1 4c3d 80b8 7ebd
000001f0: 123d 8ebc be21 003c 0d52 7fbd 9a54 86bd
00000200: cd50 203d 0b64 0bbd 596a 1d3d 8576 71b9
00000210: 3697 983b 2495 39bd 04f2 91bc 349d ff3c
00000220: 4bec 0d3d 6ef4 a6bc 381f c3ba 6def 273d
00000230: 081e 8abd c65b 0e3d b422 96bc 8058 81bc
00000240: 88bc b23c 5ff2 89bd 799d b9bc 4413 5b3d
00000250: 1c07 6a3c 9973 16bd b3fc d0bc cd9f 203d
00000260: c6d6 453c 0e3b 073d f240 56bd f1f3 f43b
00000270: 44f1 a2ba 7a15 7a3c 0dca 6e3d 936b e93c
00000280: 19e0 213d 1abd 9f3c 259d b33c cbd2 9bbc
00000290: 4585 88bd ecb5 89bd 1e53 4ebd e483 5abd
000002a0: 7a3e ae3c 7235 113c e057 febc 1781 6ebd
000002b0: 4633 7c3d 7c87 323d 0f06 b13c b33f 653d
000002c0: 4a8f 39bd 3a3d 3ebd c2f1 4ebd 843b 7cbc
000002d0: f83a 8ebd 56c8 583d 69be b5ba 0a71 ad3c
000002e0: 3729 23bd e394 92bc 266e 1cba f381 02bd
000002f0: 3fd2 483d bdb0 26bd 9e8e 173c 06f6 64bd
00000300: 585e 7ebc 7e73 c6bc b4ed 9d3c f888 0c3d
00000310: f439 0e3c 41ed 80bc 63f8 e2bc e80a 2c3d
00000320: 0bf8 d9bc ef6d 123d 83b9 14bd c982 303d
00000330: 6d36 643d 472f 213d 5788 db3c 59bf 763c
00000340: d389 e7bc 2122 1539 3e2e 3c3c 3578 a6bc
00000350: 31e4 a93b dd70 d93c 9870 76bd d7f4 83bd
00000360: fd8a 50bd 31e1 beba d53a b7bc e429 a63b
00000370: 61ed 80bc 1d8b 3cbd 8868 2ebb fd2e 003d
00000380: 07ac 55bd 2cac 493d 66eb b23b 7ffa 593d
00000390: 4e98 93bd 1cdd 96bd d224 343c cae1 92bd
000003a0: d485 7fbd 0142 b93c af5d 58bb 395f 6dbd
000003b0: 7f94 643d a5ec 39bd 85fa 483c cc76 8bbd
000003c0: 1cab 86bd 78b0 dabc 43f7 4a3c 555a 8fbc
000003d0: 7ef7 13bc b874 4cbd 28ac 0ebd 5420 fbbc
000003e0: 7f84 05bd b035 96bd ff3b 363d e427 11bd
000003f0: ac86 983b 5fad 573d 1148 d7bc bb44 c7bb
-0.073707655 -0.013848772 -0.034812488 -0.02529579 -0.058954302 0.021224948 -0.064820744 -0.015986295
0.0118574295 -0.03230984 0.028143091 -0.0022543436 0.027962048 0.032825526 -0.038665563 0.017180985
-0.031919524 0.016428636 -0.043886453 0.019357957 0.0018326596 -0.036219683 -0.041889817 0.0069851256
0.051473286 0.033608988 -0.007225718 -0.015416219 0.03624547 -0.051661406 0.011514064 -0.028009744
0.02986994 -0.033344116 -0.0064212917 0.0122885145 0.03746416 -0.018770678 0.050101753 -0.06659486
-0.021166513 -0.07501654 -0.004484467 0.005733201 -0.039042428 0.016078703 -0.009454417 -0.060002323
0.040958162 0.031932734 0.024942955 0.040454365 0.0225317 0.030311262 0.04234577 -0.015904857
-0.056477077 -0.03940988 -0.011879803 -0.0119174905 -0.010333983 0.027751958 0.011088323 -0.05587094
-0.015532138 -0.014921876 0.0315218 -0.0338703 -0.0379001 -0.019430172 -0.026803387 -0.027194947
-0.07359166 0.046824127 0.022814764 -0.038108792 -0.048671726 -0.0077226874 0.02471804 -0.04768401
-0.030062929 0.018667 -0.043274894 -0.014802265 -0.055565324 0.049034335 0.023265744 -0.07171911
-0.04401469 0.013028645 -0.0050725034 0.00737152 -0.0642091 -0.043379117 0.027087979 -0.055526022
-0.023023847 0.021452263 0.02522318 -0.0040961145 0.009511881 0.019909354 -0.016702363 -0.015060218
0.048456285 0.05234637 0.027842646 -0.03634946 -0.06606689 -0.071775325 -0.009204784 -0.035679035
-0.027536724 -0.021218652 0.057172615 0.0475861 -0.019245816 -0.031109978 0.02391146 -0.014580728
-0.070830055 0.0076249307 0.05000439 -0.06218767 -0.017363105 0.007820545 -0.06233411 -0.06559105
0.039139558 -0.034030955 0.0384315 -0.00023027703 0.0046566976 -0.045308247 -0.017815597 0.03120289
0.034649175 -0.020380225 -0.0014886623 0.04099982 -0.06744009 0.03475549 -0.018327095 -0.01578927
0.021818414 -0.06735682 -0.022658097 0.05348517 0.014283922 -0.036731336 -0.025511121 0.039214898
0.012075132 0.033015303 -0.05230803 0.007475369 -0.0012431522 0.0152639095 0.05829816 0.028493678
0.039520357 0.01949935 0.021925518 -0.019021412 -0.06666044 -0.06724152 -0.050372235 -0.053348437
0.021270026 0.00886284 -0.031047761 -0.05822858 0.061572336 0.04358624 0.021609334 0.05596895
-0.045302667 -0.04644511 -0.050523527 -0.015395049 -0.06944841 0.05292543 -0.0013865951 0.021172065
-0.039834227 -0.01789326 -0.0005967341 -0.03186221 0.04902863 -0.040695895 0.009250311 -0.05589869
-0.015525423 -0.024224993 0.019278385 0.03431031 0.008680809 -0.015738131 -0.02770633 0.04200259
-0.026607534 0.035749372 -0.03630973 0.043093476 0.055715967 0.039351728 0.02679841 0.015060269
-0.028263962 0.00014222461 0.011485634 -0.020320991 0.0051846732 0.026543075 -0.06016597 -0.06443184
-0.0509138 -0.0014562962 -0.02236692 0.0050709117 -0.015738191 -0.046031106 -0.0026612598 0.03129481
-0.05216601 0.04923646 0.0054601906 0.053217407 -0.07206784 -0.07366392 0.010995107 -0.07171972
-0.062383488 0.02261448 -0.0033014824 -0.05795214 0.05580568 -0.045391697 0.01226676 -0.06809768
-0.06575605 -0.026695475 0.012388053 -0.017499128 -0.009031175 -0.049916 -0.03483215 -0.030655064
-0.03259706 -0.07334459 0.04449081 -0.035438433 0.004654726 0.052655574 -0.026279481 -0.0060811914

lin1.bias f4 [128]
00000000: a506 83bc 7b50 65bc 5bcb 3f3d cb78 3c3d
00000010: c1fd 5c3b f8ed 1d3d 903d 90bd de31 58bd
00000020: 8328 0a3d 76c1 c1bb 838d 1abd 30d5 14bd
00000030: 2336 12bd b212 48bd 7e6c 5f3d 4c99 edbb
00000040: 48b3 5f3c 9c7c 943d 80c3 6a3d f5eb 94bd
00000050: 511e 273b 85a9 84bd bc4f 3c3d 8c08 f8bb
00000060: 4b28 26bd 3372 afbb 543d 7d3c 3af7 863d
00000070: 1e8e 15bc 4621 883d bc0d f23c 9201 1ebd
00000080: e79d 1ebd ba2a e23c b476 bbbc 28b7 d0bd
00000090: 4a78 573d 5e91 ee3b a20a 813d 1b60 85bd
000000a0: 0fa5 1d3d 5a17 05bd 3f8e 8ebc 77c1 f5bc
000000b0: bcfd 1dbd 03ec acbc 7774 f6bc b06c 713d
000000c0: 23eb a53d 809d df3c 6297 58bd de61 19bc
000000d0: d98c 49bd af54 f6bc 0c01 a23d aef7 0bbd
000000e0: ef71 98bd 8be0 0abd 0c2a 22bd 4c63 463d
000000f0: 990d 18bd a0a1 313d 9a4f 463d 1e02 713d
00000100: 60bb b93d 2095 463c 36b5 03bd bcdc 98bd
00000110: d81f 293d 8373 863d 0053 993d 91d2 6b3d
00000120: ad5a 013d 5edf 1c3d eca3 8fbd 02d5 f6bb
00000130: e433 0b3d 3ae4 66bd 3c9a f8bc 328e a43d
00000140: bc3b 803d 035d 4e3b 7534 78bd c833 1fbd
00000150: 3219 003d 3b79 f13c 0a31 0bbd 82ea 953d
00000160: 98ed bf3c f7e3 d33b 0b34 69bd 5067 8dbd
00000170: 9d0e 7dbb a995 e0bc e217 85bd 230e fabc
00000180: ddbf 18bc 3d97 c13c c311 5b3c 27c4 eebc
00000190: ace2 663b de04 66bc fdff 573d 1eda 043d
000001a0: 99e6 95bd ffb2 0e3d 5ad4 cdbc f612 ff3c
000001b0: 04d9 f3bc 0d16 61bd c394 a2bc 9aaa 043d
000001c0: 15b2 57bd 862d 5cbd c990 523d 4746 ec3c
000001d0: 4deb c33c 9c32 933d d5fe c5bc 17fb 83bc
000001e0: 61cc 5bbc 5ae9 12bc 2ac8 94bd 3cb6 fbbc
000001f0: 7288 333b b18d 40bd 78a9 8e3c 3713 1f3d
-0.01599438 -0.013996239 0.046824794 0.046013635 0.0033720585 0.038557023 -0.07042992 -0.052781932
0.03373004 -0.005912955 -0.037732612 -0.036336124 -0.03569616 -0.048845954 0.054546826 -0.0072509404
0.013653584 0.0725033 0.05731535 -0.07271568 0.0025500248 -0.06477646 0.045974478 -0.0075693782
-0.04056577 -0.00535419 0.015456516 0.065901235 -0.009128122 0.066469714 0.029547565 -0.038575716
-0.038724806 0.027608264 -0.02288375 -0.10191184 0.05260495 0.0072805127 0.06300856 -0.06512471
0.03848749 -0.032492973 -0.017401813 -0.029999478 -0.038572058 -0.021108633 -0.030084832 0.058941543
0.081014894 0.027296782 -0.052878745 -0.009361712 -0.04920659 -0.030069677 0.07910356 -0.034171753
-0.07443606 -0.033905547 -0.03959088 0.04843454 -0.037122343 0.04336703 0.048415758 0.05883991
0.09068942 0.012120515 -0.032155238 -0.07463977 0.041290134 0.06565001 0.07486534 0.05757386
0.031580616 0.038298957 -0.070136875 -0.0075327167 0.033985034 -0.056369998 -0.030346982 0.08034934
0.062613934 0.0031488545 -0.060596902 -0.03886774 0.031274028 0.029476753 -0.033982314 0.073201194
0.023428723 0.0064663845 -0.056934398 -0.06904471 -0.0038613447 -0.027415114 -0.06498696 -0.030524319
-0.0093230875 0.023631686 0.013370934 -0.029146267 0.0035230322 -0.014039246 0.052734364 0.032434575
-0.07319374 0.034838673 -0.025125671 0.031136971 -0.029766567 -0.05495267 -0.019846326 0.03238926
-0.052660067 -0.053754352 0.05140761 0.028842105 0.023915911 0.07187387 -0.024169365 -0.01611094
-0.013415427 -0.008966768 -0.07264741 -0.030726545 0.002739456 -0.047010127 0.017414793 0.038836684

bn1.weight f4 [128]
00000000: 7b20 7c3f 3376 803f 46a1 743f 96c2 7d3f
00000010: e4f6 863f 6243 783f 19cb 7c3f 075f 793f
00000020: 53e0 753f 2736 7e3f b8be 893f c745 703f
00000030: 9c3d 7c3f 0434 7e3f 9ead 863f 6c56 823f
00000040: a336 7f3f 0711 7c3f 1d1c 7e3f 224f 783f
00000050: f7e8 873f d2f3 7a3f ea51 793f b66a 7e3f
00000060: d084 793f e973 7d3f d104 843f 6627 793f
00000070: 5952 713f bedb 783f 3a3c 813f 9c81 7b3f
00000080: faf3 7f3f 056b 7e3f 3358 7b3f 6e25 853f
00000090: 68a5 7d3f bbc3 783f 19e5 7f3f faf3 7f3f
000000a0: dbc5 7e3f 5af3 803f 5114 803f 579e 7e3f
000000b0: 8c72 7d3f b2be 803f fe5e 7b3f 55cd 733f
000000c0: 8dd9 733f d45b 6f3f 026f 753f 845a 7e3f
000000d0: 562c 843f 41c5 7e3f 5436 853f 793e 7d3f
000000e0: 9f48 7d3f bd9b 6e3f faaf 723f 28fe 6f3f
000000f0: 46fa 703f ed12 7d3f c20f 813f d9ca 763f
00000100: 171e 833f 7b3f 823f eb44 823f fe74 7d3f
00000110: 8032 783f d8e2 803f 58b8 723f 384f 823f
00000120: 79a8 7b3f b079 7b3f 0c0c 7f3f f010 773f
00000130: 7319 713f 9c6a 7e3f c09e 7e3f 3371 823f
00000140: d049 753f 1d67 713f a136 7d3f 0ecd 7e3f
00000150: aabe 7d3f d55b 7e3f a697 7e3f 3e14 773f
00000160: a1ee 7c3f 084c 833f 300e 7e3f 71e9 7d3f
00000170: 826a 7e3f 7fc9 803f 25bc 7d3f 5bda 7d3f
00000180: 6284 793f 397f 753f a143 703f 5b52 7c3f
00000190: b1bd 773f a5ab 803f a00c 763f 6227 803f
000001a0: ce49 7d3f a27d 853f 9c32 7e3f 8151 7f3f
000001b0: 7e13 7c3f 08e7 7e3f 1a64 7e3f 81b1 7d3f
000001c0: 8863 793f d8f1 7e3f 43cc 7d3f 2abd 7a3f
000001d0: 6e1b 793f 356f 6e3f 9d49 7c3f 15aa 803f
000001e0: 0e65 833f 3dfb 833f b825 7c3f 5f9f 7f3f
000001f0: f1b4 803f 7a60 773f 6b52 7e3f 3f06 7e3f
0.9848706 1.0036072 0.95558584 0.9912504 1.0544095 0.9697782 0.987474 0.97410625
0.96045417 0.9930138 1.0761328 0.9385647 0.9853151 0.9929812 1.0521734 1.0182624
0.99692744 0.9846348 0.9926165 0.9699575 1.061797 0.9802829 0.97390616 0.9938158
0.9746828 0.9900499 1.031397 0.9732574 0.9426628 0.972103 1.0096505 0.98244643
0.99981654 0.9938205 0.98181456 1.0402048 0.99080515 0.9717366 0.9995895 0.99981654
0.99520653 1.0074265 1.00062 0.9946036 0.9900291 1.0058196 0.9819182 0.95235187
0.9525383 0.93499494 0.9587251 0.99356866 1.032603 0.99519736 1.0407205 0.9892345
0.98938936 0.9320639 0.9479977 0.93747187 0.94131887 0.98857003 1.0082934 0.9640327
1.0243558 1.0175623 1.0177282 0.9900664 0.96952057 1.0069227 0.94812536 1.0180426
0.98303944 0.98232555 0.9962776 0.9651022 0.9417946 0.99381423 0.99460983 1.0190796
0.95815754 0.94297963 0.9891148 0.9953164 0.99119055 0.99358875 0.9945015 0.9651526
0.9880162 1.0257578 0.992404 0.9918433 0.9938127 1.0061492 0.9911521 0.9916131
0.97467625 0.9589725 0.93853194 0.98563164 0.9677382 1.0052382 0.96113014 1.0012019
0.9894074 1.0428965 0.99295974 0.9973374 0.9846724 0.99571276 0.9937149 0.99098974
0.974175 0.99587774 0.99139804 0.9794489 0.9730748 0.9313844 0.98549825 1.0051905
1.0265214 1.0311047 0.98495054 0.99852556 1.0055219 0.96631587 0.9934451 0.9922828

bn1.bias f4 [128]
00000000: 4865 5e3d 7a2f 013e b00a 333e 5d80 b43d
00000010: b3ca f5bd 6848 f33d aa17 25be 7e05 1dbe
00000020: 8cd4 25be 82f6 60be 9c92 3d3d 4cd5 22be
00000030: 9568 de3d fff3 8d3d bb3d d13d 6fdc bebd
00000040: be2f d3bd 2f0a 0d3e 4cca ff3d e8c8 bcbd
00000050: 97d6 e83d 2922 ecbd 00a4 2e3e 88df 13be
00000060: 7bbb 963d d96d 0e3d 8c22 113e ee47 17be
00000070: 553a 49be 901c 52be e865 503e 08c0 ec3d
00000080: 9b51 f83d f759 ff3d 3c63 b13d d864 ccbd
00000090: 8d05 0fbe 1cfd d33d 9a0f b73d 5534 eebd
000000a0: 2e26 193e 9d37 c63d 2005 263c 59bb 0a3e
000000b0: 505b 07be b1ac f03d 6215 3b3e 5da4 253e
000000c0: ea7b 273e 88a2 1fbe 025c 5cbe 12ba 073e
000000d0: 283e 3b3d fb28 e93d 9bd1 1f3e c463 e73d
000000e0: 8112 d73d 297d 35be 5a26 3e3d 5522 43be
000000f0: 7ca2 4fbe f152 c83d cc9a 093e a642 1f3e
00000100: 072d 033e 2512 74bd 66a8 45be 010d f53d
00000110: 15f8 c73d 91dc 2e3e fa21 563e c036 31be
00000120: 593e 57be 62ad c03d fa34 fbbd d60d a33d
00000130: 19e9 4bbe 3cf8 00be 81e9 e73d fcaa 103e
00000140: 6df6 3fbe f745 36be 80a1 8cbd 8df3 fd3d
00000150: 8604 b43d bdd2 22be d074 52bd d914 553e
00000160: 2b35 f13d bb92 a03d 07bc 1fbd 74aa e93d
00000170: e8a4 0d3e c49f d93d e86d e9bd 9b83 d13d
00000180: c135 523a 1aee 12be e930 60be 44c2 5cbd
00000190: 161f 3f3e 8c6e c5bd af16 3dbe 8c5a 23be
000001a0: 1622 303d b842 963d 9c2b 6d3d b314 00be
000001b0: bc0c be3d e6e5 103e 9447 0c3e 24ba 2dbc
000001c0: db6a 853d 8f64 0dbe c1d9 0fbe 535f 86bd
000001d0: abad 34be 7b88 01bd f425 ff3c 18bf ddbd
000001e0: ab22 7c3c 9571 043e 35aa 873d 3a83 b6bd
000001f0: 5675 bb3d 6428 5abe 4fa2 f6bd 0834 08be
0.054295808 0.12615767 0.17484546 0.08813546 -0.120015524 0.11879045 -0.16122308 -0.15334126
-0.16194361 -0.21969035 0.046282396 -0.15901679 0.10859791 0.06931304 0.10216852 -0.09319388
-0.103118405 0.13773416 0.12489757 -0.09218007 0.11369055 -0.11529953 0.17054749 -0.14440739
0.07359978 0.034772728 0.14173335 -0.14773533 -0.19651158 -0.20518708 0.20351374 0.115600646
0.1212494 0.12468331 0.086615056 -0.09980172 -0.13966961 0.10351011 0.08938523 -0.11631075
0.1495597 0.09678576 0.010133058 0.1354803 -0.13218427 0.11751688 0.18269876 0.16175981
0.16355863 -0.15589345 -0.21519473 0.13254574 0.045713574 0.113847695 0.15607302 0.11298326
0.10501576 -0.17723526 0.046423294 -0.19056065 -0.20276827 0.09781445 0.13437957 0.15552768
0.12810145 -0.059587616 -0.1930252 0.11965371 0.09764115 0.17076327 0.20911399 -0.17306042
-0.21019877 0.0940807 -0.12265964 0.07961623 -0.19913138 -0.12594694 0.11323834 0.14127725
-0.18746348 -0.17800127 -0.06866741 0.12399969 0.08789925 -0.15900703 -0.051380932 0.20808734
0.11777719 0.078404866 -0.038997676 0.114094645 0.13832438 0.10626176 -0.11397916 0.1023018
0.0008018874 -0.14348641 -0.21893658 -0.053896204 0.18664202 -0.09640226 -0.18465684 -0.1595251
0.043001257 0.07336944 0.057902917 -0.12507896 0.09279773 0.141502 0.1369918 -0.010603461
0.06514522 -0.13807891 -0.1404791 -0.065611504 -0.17644374 -0.0316243 0.031146027 -0.10827464
0.015389125 0.12933953 0.06624261 -0.08911748 0.091532394 -0.2130447 -0.12042677 -0.13301098

bn1.running_mean f4 [128]
00000000: 0400 0000 0400 0000 020d 403f 0400 0000
00000010: 0400 0000 7491 d03e 8378 453e 4cd8 c73e
00000020: 3e3d 2a3f 7b6a ec3e 2c62 803e 0b4e cb3e
00000030: 0400 0000 0400 0000 aa90 163e 0400 0000
00000040: 0400 0000 0f77 d23e 0400 0000 0400 0000
00000050: 766e ac3e 0400 0000 795f 7d3e 0400 0000
00000060: 0400 0000 0400 0000 7968 ae3e 2590 db3e
00000070: 542a c63e 62a3 2a3f 3009 803e d674 033f
00000080: 0000 0000 0400 0000 0400 0000 0400 0000
00000090: 0400 0000 0400 0000 0400 0000 0000 0000
000000a0: bd3c e43e 4530 5211 0400 0000 0400 0000
000000b0: 0400 0000 0400 0000 83b6 4d3c 0883 b43e
000000c0: 62f9 b93e a3b3 8a3e 9af7 a23e 0400 0000
000000d0: 0400 0000 0400 0000 3996 8e3e 0400 0000
000000e0: 0400 0000 7625 533f 084c f23e d2bb af3f
000000f0: fe61 093f 0400 0000 2b73 913e 8438 e23e
00000100: 312e ba3e 4e05 c33c 833a 153f 0400 0000
00000110: 0400 0000 cd44 553e efe1 a93e 9787 e73e
00000120: 18ab 363f 0400 0000 0400 0000 3b0c d918
00000130: 0451 1a3f 0400 0000 0400 0000 5d12 b83e
00000140: da56 9b3e 0286 ba3e 0400 0000 0400 0000
00000150: 0400 0000 ca26 b33e 7d3c c23c 948d bc3e
00000160: 0400 0000 e45d c62c 0400 0000 0400 0000
00000170: 0400 0000 bfd3 cb3e 0400 0000 0400 0000
00000180: 25e6 ce3e e6d1 023f 1022 ba3e 0400 0000
00000190: 4bf5 973e 0400 0000 8c91 513f 0be2 e23e
000001a0: 0400 0000 0400 0000 0400 0000 0400 0000
000001b0: cf36 903e 0400 0000 0400 0000 0400 0000
000001c0: b31e d03e 0400 0000 0400 0000 009b c03e
000001d0: d7f5 e03e 391b 9d3e 0400 0000 c77d 1b3c
000001e0: 6686 063f f4cb aa3e 0400 0000 8757 c93b
000001f0: 0400 0000 8c5b b83e 0400 0000 0400 0000
6e-45 6e-45 0.7501985 6e-45 6e-45 0.40735972 0.19284253 0.3903221
0.664997 0.46174988 0.250749 0.3970798 6e-45 6e-45 0.14703622 6e-45
6e-45 0.4110646 6e-45 6e-45 0.33678025 6e-45 0.24743451 6e-45
6e-45 6e-45 0.3406408 0.4288341 0.3870417 0.6665555 0.2500701 0.5135015
0.0 6e-45 6e-45 6e-45 6e-45 6e-45 6e-45 0.0
0.4457759 1.6580953e-28 6e-45 6e-45 6e-45 6e-45 0.012555721 0.3525622
0.36323076 0.27090177 0.3182953 6e-45 6e-45 6e-45 0.27848986 6e-45
6e-45 0.82479036 0.47323632 1.3729193 0.5366515 6e-45 0.2840818 0.44183743
0.36363366 0.02380624 0.58292407 6e-45 6e-45 0.20827027 0.33180186 0.45220634
0.7135482 6e-45 6e-45 5.6105535e-24 0.6027987 6e-45 6e-45 0.3595151
0.303397 0.36430365 6e-45 6e-45 6e-45 0.3499053 0.023710484 0.36826766
6e-45 5.6379224e-12 6e-45 6e-45 6e-45 0.39809987 6e-45 6e-45
0.4040996 0.5110153 0.36354113 6e-45 0.2967933 6e-45 0.8186271 0.44313082
6e-45 6e-45 6e-45 6e-45 0.28166816 6e-45 6e-45 6e-45
0.40648422 6e-45 6e-45 0.37618256 0.4393756 0.30684832 6e-45 0.009490437
0.52548826 0.3335873 6e-45 0.0061444673 6e-45 0.36007345 6e-45 6e-45

bn1.running_var f4 [128]
00000000: 0400 0000 0400 0000 89e7 423c 0400 0000
00000010: 0400 0000 4fd7 153c 9e7d 1d3c abd1 433c
00000020: acdc 1d3c 5747 ef3b d435 5e3c 9108 433c
00000030: 0400 0000 0400 0000 d5c2 df3b 0400 0000
00000040: 0400 0000 6881 3d3c 0400 0000 0400 0000
00000050: e68f 093c 0400 0000 ae52 183c 0400 0000
00000060: 0400 0000 0400 0000 26c3 153c 1c66 3f3c
00000070: a62b 273c fca8 273c 14d5 0f3c e78e 523c
00000080: 0400 0000 0400 0000 0400 0000 0400 0000
00000090: 0400 0000 0400 0000 0400 0000 0400 0000
000000a0: e2e2 5b3c c029 800d 0400 0000 0400 0000
000000b0: 0400 0000 0400 0000 c4d2 843a 39c5 4c3c
000000c0: 1c8c 2b3c 4f11 423c c3d7 0f3c 0400 0000
000000d0: 0400 0000 0400 0000 9ccd 283c 0400 0000
000000e0: 0400 0000 a199 0e3c 1cd8 683c 839a 553c
000000f0: 4119 053c 0400 0000 2af4 1f3c 9f8c 2c3c
00000100: d4bc 3e3c 394a eb3b d413 253c 0400 0000
00000110: 0400 0000 96eb 333c ddad 193c 3106 1c3c
00000120: 0c7e 193c 0400 0000 0400 0000 8fe5 2514
00000130: f505 f83b 0400 0000 0400 0000 87c3 2d3c
00000140: fa44 133c f398 4c3c 0400 0000 0400 0000
00000150: 0400 0000 cc43 783c ed1d fd3b 7c72 213c
00000160: 0400 0000 cfec 102b 0400 0000 0400 0000
00000170: 0400 0000 1488 363c 0400 0000 0400 0000
00000180: b9a1 693c c2e6 263c 90af c73b 0400 0000
00000190: 4737 023c 0400 0000 6d45 553c 1dc6 503c
000001a0: 0400 0000 0400 0000 0400 0000 0400 0000
000001b0: 792f 363c 0400 0000 0400 0000 0400 0000
000001c0: 064c 363c 0400 0000 0400 0000 843c 5f3c
000001d0: 11f1 133c 9c6b 613c 0400 0000 def5 243b
000001e0: c17c 4c3c ff08 3a3c 0400 0000 6ee4 c43a
000001f0: 0400 0000 1c6a ff3b 0400 0000 0400 0000
6e-45 6e-45 0.011896023 6e-45 6e-45 0.009145572 0.009612469 0.011951844
0.009635132 0.0073022055 0.013562638 0.011903898 6e-45 6e-45 0.0068286457 6e-45
6e-45 0.011566497 6e-45 6e-45 0.0083961245 6e-45 0.009297056 6e-45
6e-45 6e-45 0.009140765 0.01168206 0.010203278 0.01023316 0.008778829 0.012851453
6e-45 6e-45 6e-45 6e-45 6e-45 6e-45 6e-45 6e-45
0.013420792 7.89866e-31 6e-45 6e-45 6e-45 6e-45 0.0010133614 0.012498193
0.010470416 0.011844947 0.008779469 6e-45 6e-45 6e-45 0.010302927 6e-45
6e-45 0.00870362 0.014211681 0.013037327 0.008123697 6e-45 0.009762803 0.010531574
0.0116417 0.007180479 0.010075528 6e-45 6e-45 0.010981461 0.009379831 0.0095229605
0.009368431 6e-45 6e-45 8.3756436e-27 0.0075690695 6e-45 6e-45 0.010605699
0.008988613 0.012487638 6e-45 6e-45 6e-45 0.015152883 0.0077245147 0.009853955
6e-45 5.1487715e-13 6e-45 6e-45 6e-45 0.011140842 6e-45 6e-45
0.014259749 0.010186853 0.0060939267 6e-45 0.007947749 6e-45 0.013017041 0.012742546
6e-45 6e-45 6e-45 6e-45 0.011119717 6e-45 6e-45 6e-45
0.011126524 6e-45 6e-45 0.013625268 0.009029643 0.013758566 6e-45 0.0025170962
0.0124809155 0.011354684 6e-45 0.0015021691 6e-45 0.0077946316 6e-45 6e-45

lin2.weight f4 [128, 128]
00000000: 180b 683d 472a 65bd 2b90 b0bd b0e7 82bd
00000010: 1e7e ac3c 81c1 bebc 8cee 9fbc 8ee3 1ebc
00000020: aeef a6bb 6f73 2a3d abf7 ca3c efc0 0bbd
00000030: 9a42 c7bd e935 38bc 1a03 0fbd 712d 113c
00000040: 2cc2 ff3c ae84 9f3c 6748 03bd f8c4 043d
00000050: 4a63 ef3c 052d e23d 7d94 29bd a1b3 3c3e
00000060: 74f8 11bc 0875 a1bd b447 11bd 7e53 86bc
00000070: c595 c53d 5a1d 4f3d af37 a5bc 71f2 ab3d
00000080: 60aa 14be ca78 16be 9f96 2bbc 9291 8a3d
00000090: f7f7 dfbc 14e3 32bd de1c 6fbd 70e3 043e
000000a0: e803 05bc 2a4c d6bb d359 b5bc c433 30be
000000b0: 27a2 a43d c00e 5c3d 2429 94bd a677 493d
000000c0: cade 70bd 4b50 59bd 6c96 123d a8df c7bd
000000d0: fb4d 66bc 9021 90bd fe79 8abd a704 12be
000000e0: 0c63 57be fda9 f03b aa57 b43d e4c8 a43d
000000f0: 2241 903d a3bb 163d c9a2 a7bc fd3d 8cbc
00000100: 3ea2 e23c 9a4b e23d c56b b93c 1d9e 14bd
00000110: 6a7d 97bd 004f 6bbd 3f57 a1bd 8d1e eabb
00000120: 79b7 a63c 52bc 25bd e737 013e ebe8 3ebd
00000130: 9322 bc3d 99da e13d e6a2 d4bd 91c6 5abd
00000140: db6b 08bd 786d a5bc a2b0 f73c b496 25be
00000150: 30a8 1ebe ec7a f0bb db4f c93d 4668 99bd
00000160: b578 30bd 3364 833c 1cf3 a23d effc 0d3d
00000170: f5fd d7bd 7e60 ac3a b30f 2e3e 5a65 56bc
00000180: 4bd9 d43c fd6b 3b3d 5ca8 6e3d 50dc 1a3d
00000190: 15f1 303d f707 09bd d0f7 18bd 1931 343d
000001a0: 9ab4 833c 088c af3a e429 bcbc 04c4 b33d
000001b0: a873 8fbc 54cf 34be 7879 01be 98bb 5b3d
000001c0: 3cf5 9c3d 0139 2a3e 0357 983d 8e6a 0cbd
000001d0: eec5 113d 7e5d 72bd 34bc 993d faa6 d23d
000001e0: 1374 253d 0bee b0bc 7166 563d 39e5 053e
000001f0: c70c ce3c 7363 9e3d 29e5 063e 3a8e 313d
00000200: 9a9a 6f3d 3739 023e c8ea e93c b80c b5bd
00000210: 99ac 02bb bfe7 babd 8e7b 92bd 5f93 723d
00000220: c8f3 013e 9db1 3e3d f330 de3b 8f17 0cbd
00000230: 0428 9dbd d012 e2bc 8e3d 20be 0f34 0ebd
00000240: 9128 d23d 5e9b 15bd f517 10bd 721e 833d
00000250: 6358 aebd 5309 053e 5c9b 0e3d 68ef 913d
00000260: a677 a3bd 1bea 423d c749 1d3d 24be 843d
00000270: 39c7 b53c 3985 263d c57d a3bd a025 b73c
00000280: e971 6ebd f5de cabd faa0 9f3d da70 08bd
00000290: a456 a33c 6267 82bd e6eb 4dba 9933 76bc
000002a0: f91c ad3c 2997 debd 38cd 163c 475b ab3c
000002b0: b5a1 ac3b f8fd 4b3d 10dc eb3d c469 983b
000002c0: 18a9 5bbd dcaa a5bd f096 5dbd d101 0dbe
000002d0: 83da 833c 8c68 2cbe 6ecd 0a3d c1fc 523d
000002e0: 1575 00bc 9a0c 8a3d 36b7 07bd b575 f13b
000002f0: 466f ff3c ef14 abbd 2b07 373d 0780 a9bd
00000300: 5a75 22bd e5e6 f73c ef47 1fbd 81a8 bdbc
00000310: 376c abbd 4c13 9cbc 1f70 ac3d 8f18 05be
00000320: 0d7a 943c 3183 593d dcb5 653c 53d1 443c
00000330: c470 763d 5bd2 063e d279 47bd 961a 193d
00000340: 68c4 88bc ce88 153c d25a 313d 03bc b3bc
00000350: c277 47bd 1fa8 773c e64a 06bd 4653 fbbd
00000360: 7616 bfbd b5ef c4bd 9e3c a03c dd83 cdbd
00000370: aa28 c1bc bfce 723d 3c0c 99bb cafb a8bc
00000380: 469f 17bd d865 84bc c833 51bd 6b79 69bd
00000390: b658 48bd ba58 f13d 6927 943c 4a7c 8bbc
000003a0: 7831 713d 6306 dfbc a741 5dbd 7c31 993b
000003b0: 8242 7d3d 7ff9 18bb 2a48 8ebd b6de 3dbd
000003c0: 44ac 7ebd ad99 dd3d 57d9 853d 2f9a 66bd
000003d0: 197b 3fbc 8997 1dbd 34b9 78bc 8cd1 bb3a
000003e0: 964c 8b3c 3672 a0bd e01c 0c3d 23a7 bfbb
000003f0: 9697 bfbd a177 383d 251c b33d 0915 9f3d
0.056651205 -0.055948522 -0.08621248 -0.06391847 0.021056231 -0.02328563 -0.019522928 -0.009697808
-0.00509449 0.041613992 0.0247763 -0.034119543 -0.097295 -0.011243322 -0.034915067 0.008860932
0.031220518 0.019472446 -0.03205147 0.032414407 0.02922215 0.11043743 -0.041401375 0.18427898
-0.0089093335 -0.0788365 -0.035468772 -0.016397234 0.09647707 0.0505651 -0.020168154 0.083958514
-0.14518118 -0.14694515 -0.010472923 0.067660466 -0.027339919 -0.04367359 -0.05837714 0.12977386
-0.008118607 -0.006539841 -0.022137558 -0.17207247 0.080387406 0.053725004 -0.072344095 0.04918637
-0.05880622 -0.05305509 0.035787985 -0.09759456 -0.014056678 -0.070376515 -0.067615494 -0.14259587
-0.21033877 0.007344483 0.08805783 0.08046129 0.07043673 0.036800038 -0.020463364 -0.017119402
0.027665254 0.11049576 0.022634396 -0.0362836 -0.07396968 -0.057448387 -0.07877969 -0.007144755
0.020351158 -0.0404628 0.12618981 -0.046608847 0.09186282 0.11028022 -0.10382633 -0.053412024
-0.033305984 -0.0201938 0.030235592 -0.1617077 -0.15493846 -0.007338872 0.09829684 -0.07490592
-0.043083865 0.01603899 0.07956526 0.034665044 -0.10546485 0.0013151316 0.16998176 -0.0130856875
0.02598252 0.045757283 0.05826603 0.037807763 0.043198664 -0.03345486 -0.037345707 0.043992136
0.016077328 0.0013393173 -0.022969194 0.087776214 -0.017511204 -0.17657214 -0.12643993 0.0536457
0.07663962 0.16623308 0.07438471 -0.034281306 0.03558915 -0.059171192 0.075066 0.102857545
0.0403939 -0.021597883 0.05234379 0.13075723 0.025152577 0.07733812 0.13173355 0.04334853
0.05849705 0.12717138 0.028554335 -0.088403165 -0.0019939302 -0.09126233 -0.071524724 0.059222575
0.12690651 0.046556104 0.0067807375 -0.034202155 -0.07673648 -0.027596861 -0.15648481 -0.034717616
0.10261644 -0.036525123 -0.035179097 0.06402291 -0.08512952 0.12991838 0.03481613 0.07125741
-0.079818055 0.04758654 0.038400438 0.06481579 0.022189723 0.040654395 -0.07982973 0.022356808
-0.058214102 -0.09905807 0.07794376 -0.03331075 0.019938774 -0.06367375 -0.0007855281 -0.01502695
0.02113198 -0.10868675 0.009204201 0.020917548 0.0052683004 0.04980275 0.11516583 0.00465128
-0.053628057 -0.080892295 -0.054099023 -0.13770224 0.016095405 -0.16836756 0.03388732 0.051510576
-0.0078404145 0.06740685 -0.033133708 0.007368768 0.031180989 -0.08353602 0.04468457 -0.082763724
-0.039662696 0.030261466 -0.03888696 -0.023151638 -0.0837025 -0.01905217 0.08419823 -0.1299765
0.018124605 0.05310363 0.014020409 0.012012797 0.060166135 0.13166182 -0.04870016 0.03737887
-0.016695216 0.009126855 0.043299504 -0.021940237 -0.048698194 0.015115767 -0.032786272 -0.122717425
-0.09330456 -0.09616033 0.019560155 -0.100349165 -0.02357896 0.0592792 -0.004670648 -0.020627875
-0.03701713 -0.016161844 -0.051074773 -0.05700056 -0.048912726 0.117845014 0.018085198 -0.01702704
0.058885068 -0.027224725 -0.05401769 0.0046750885 0.061831005 -0.002334207 -0.06947358 -0.04635497
-0.062176004 0.10820327 0.06535595 -0.056299385 -0.011687064 -0.038474593 -0.015180875 0.0014329418
0.017004292 -0.07834284 0.034207225 -0.0058487817 -0.093550846 0.045035962 0.087456025 0.07767684

lin2.bias f4 [128]
00000000: ebce 46bc c46c d5bd c33e e6bd 3466 88bd
00000010: 2d91 3dbd 28b6 18be 015f 1e3d 0116 81bd
00000020: 7089 1fbe 5da3 b33c 1ce8 aa3d 3f79 64bd
00000030: dbb5 44bd f095 e0bd b28b abbd 11c7 c93c
00000040: dd6e 293d 62ed 93bc ea87 aabd c6e5 dfbc
00000050: 85d9 183d c0c0 6ebd 2631 9dbd fc76 0fbe
00000060: e86a 50be 788f 28be 3d9a 9bbd 115f 01be
00000070: 2d81 c9bd 4307 89bd 2fc6 d7bd 7165 2fbd
00000080: d15c 17be b5a4 30be f1f1 ca3a e110 b1bc
00000090: 2fd4 8dbc 2295 bcbd fe8a 4abd 7e40 00bd
000000a0: 6775 b63c ddac 12be e88f 13be df05 263c
000000b0: 2a22 9ebd 9e18 ecbd 285b 2cbe fe9d 833d
000000c0: edc5 0dbd 8f77 d23c f1ab a2bc 1958 283a
000000d0: 73ae a7bd b253 3a3c 0097 47bd c990 a73d
000000e0: c4aa d1bd e9df 70bc afa0 b9bd f620 36bd
000000f0: b184 a3bd e87f 97bd a3c3 2abe 7596 b0bc
00000100: 3190 11be c187 8dbd 5351 3abe aac9 61bd
00000110: 958d 0abe 8149 d2bd 2694 763d 2565 ebbd
00000120: f349 97bd 6594 0ebe e0d3 00be ce8a 18be
00000130: 2065 a0bd 1a4e 8dbd 9b1b 1abd 0994 c4bb
00000140: 2ef0 723c 4e74 0fbe 5832 2dbe b6e3 d8bd
00000150: 1899 d3bd 8280 1e3c 077c 7bbd 8d22 e3bc
00000160: b2a8 4fbd ea96 d53c 0c5c debd 78d1 05be
00000170: 595d 63bd cbd6 9f3c a709 d7bc 02e3 ed3c
00000180: a8ec cfbd 0a38 f1bc a46e c2bd 8206 40be
00000190: f33e cebd 77d9 22bd fac8 96bd 5449 adbd
000001a0: 11dc 4fbd fa81 adbd 11fa 14be 53c9 433d
000001b0: b9ec 03be 2bc5 b4bd 83a2 09bd 94d1 0abd
000001c0: cbab c1bd f5b9 e1bd 33cd 3ebe 9bda 43be
000001d0: 8fcd 793b d5cb 4abd 2f86 40be c718 25be
000001e0: 233f ec3d 9b57 0fbe d8ab 02be fecc d0bd
000001f0: 5467 9b3d 46f9 ebbc d16a 30be 2d35 2ebe
-0.012134294 -0.10421136 -0.112424396 -0.06660119 -0.04628103 -0.14913237 0.03866482 -0.06303025
-0.15579772 0.021928484 0.083450526 -0.05577969 -0.048024993 -0.10966098 -0.08376254 0.024631055
0.041365493 -0.018057529 -0.08326705 -0.027331244 0.037316818 -0.05828929 -0.0767539 -0.14010233
-0.20353281 -0.16460979 -0.07597778 -0.12633921 -0.098390914 -0.06690838 -0.105358474 -0.04282135
-0.147815 -0.17250331 0.0015483481 -0.021614494 -0.017313091 -0.09208132 -0.04944896 -0.031311505
0.022272779 -0.14323755 -0.14410365 0.010133236 -0.0772136 -0.11528133 -0.16831648 0.06426619
-0.034612585 0.025691776 -0.019857379 0.0006421819 -0.081875704 0.011372494 -0.04872799 0.081819125
-0.10237649 -0.014701822 -0.09063851 -0.044465028 -0.07984293 -0.07397443 -0.16676192 -0.021556119
-0.14215161 -0.06910659 -0.18195085 -0.055123962 -0.13530572 -0.10267926 0.06019988 -0.11493901
-0.073871516 -0.13923796 -0.12580824 -0.148967 -0.07831788 -0.06899662 -0.037623983 -0.0059990925
0.014827771 -0.1400921 -0.16913736 -0.105903074 -0.10331935 0.009674193 -0.06139758 -0.027726436
-0.05069799 0.026072938 -0.108574 -0.13068187 -0.055508945 0.019511601 -0.02624972 0.02903891
-0.101525605 -0.029445667 -0.09493759 -0.18752483 -0.100706 -0.039758172 -0.07362552 -0.08461252
-0.05074698 -0.08472057 -0.14548518 0.04779942 -0.12883271 -0.08826669 -0.03360225 -0.033891276
-0.09456595 -0.110217966 -0.18632965 -0.1912636 0.0038116907 -0.049510796 -0.18801187 -0.16122733
0.1153548 -0.13998263 -0.12760866 -0.10195349 0.07588068 -0.028805386 -0.17228247 -0.17012472

bn2.weight f4 [128]
00000000: 3eb1 923f 1a07 9c3f 10a1 a63f 2e77 9e3f
00000010: de6a 903f 9d07 963f 7a91 a23f f311 973f
00000020: eec9 9a3f fb39 9e3f 5448 973f bd6b 993f
00000030: a545 983f a9f1 a03f fec9 963f a195 9b3f
00000040: 04c9 9a3f c45c 943f ae27 9b3f 5ccb a43f
00000050: cea2 953f 3c6e 903f e996 8e3f 8903 993f
00000060: 690f 9d3f 7dd0 a63f 3fbe 913f 9a5e 9d3f
00000070: 087a 953f bd97 9a3f 52d0 993f 96e8 943f
00000080: 8644 a13f ad1d 9d3f ce74 963f 9541 953f
00000090: 9689 923f e52d 983f f189 a43f 625c 8f3f
000000a0: 47f6 993f 2bb2 a13f 7950 983f 5826 953f
000000b0: 708b 933f a333 ac3f 7302 993f a296 8e3f
000000c0: 13ae 8d3f 9930 953f 4cd9 983f 4437 973f
000000d0: 1050 9a3f dabf 9a3f c7a5 893f 25b4 8d3f
000000e0: cd18 963f 9237 993f 68b1 963f 46fc 983f
000000f0: a2da 933f a8fb 913f d3d1 9d3f 806a 973f
00000100: a5fa 973f 3fc7 9b3f bbd9 9d3f 5956 983f
00000110: f550 933f 2f10 a23f a562 9a3f 08c6 a13f
00000120: ad82 9c3f e224 9a3f 3de0 a13f 45e2 893f
00000130: da8a 9d3f 1a5e 9e3f fb5d a73f afbd 903f
00000140: 3fe0 973f de36 9a3f b2c3 923f 0b27 943f
00000150: 320a 9b3f 8c16 a03f beee a03f d821 873f
00000160: 4128 a03f d04d 933f 44e3 973f f631 9b3f
00000170: d736 8b3f 98d8 8f3f 831e a23f 1bf3 973f
00000180: f859 a03f 60b6 913f 4942 9a3f d43f 9b3f
00000190: e0f7 993f fbdd a13f bc8a a23f e4ab a23f
000001a0: f274 a03f 3ce5 983f baef a23f 3782 903f
000001b0: 79f1 8c3f 42e1 a73f 6a16 953f d156 923f
000001c0: 20fe 993f 72e3 9b3f 57a0 9e3f 35b4 a03f
000001d0: 2356 993f d689 953f 3cb5 9e3f 8a59 793f
000001e0: b1b0 953f f194 933f ea69 9a3f 05f9 9a3f
000001f0: 26df 8c3f d5a8 993f 901d 973f a85a 973f
1.146034 1.2189667 1.3017902 1.2380121 1.1282613 1.1721073 1.2700646 1.1802353
1.2092874 1.2361444 1.1818948 1.1986004 1.1896254 1.2573749 1.1780393 1.2155038
1.2092595 1.159081 1.2121484 1.287456 1.1690309 1.1283641 1.1139804 1.1954204
1.2270328 1.3032376 1.1386184 1.2294495 1.1677866 1.2077557 1.2016699 1.163348
1.2599037 1.2274681 1.1754396 1.1660639 1.1448238 1.1889006 1.2854596 1.1200068
1.2028283 1.2632498 1.1899558 1.1652327 1.1526928 1.3453258 1.1953872 1.113972
1.1068748 1.1655456 1.1941314 1.1813741 1.2055683 1.2089798 1.0753716 1.1070601
1.1726319 1.1970084 1.177289 1.1951988 1.1551096 1.1404924 1.2329658 1.1829376
1.1873366 1.217018 1.2332071 1.1901351 1.1509081 1.2661189 1.2061354 1.2638559
1.2227379 1.2042506 1.2646557 1.0772177 1.2307999 1.2372468 1.3075556 1.1307887
1.186531 1.2047994 1.1465971 1.1574415 1.2112486 1.2506881 1.2572858 1.0557203
1.2512285 1.1508121 1.1866231 1.2124622 1.0876111 1.1237974 1.2665561 1.1871065
1.2527456 1.1383781 1.2051479 1.2128854 1.202877 1.2645868 1.2698588 1.2708707
1.2535689 1.1944957 1.2729409 1.1289738 1.1011192 1.3115618 1.1647465 1.1432744
1.2030678 1.2178786 1.2392682 1.2554995 1.1979412 1.1682689 1.2399058 0.9740225
1.1694547 1.1529828 1.2063572 1.2107245 1.10056 1.2004648 1.1805897 1.1824541

bn2.bias f4 [128]
00000000: 49bb 24be 2561 443e 2a81 a03e 72ca 73be
00000010: e2ff 2f3e c0d3 44be a8cd 783e e6bd 323e
00000020: 822e 4fbe 5f29 e63e 3f5e a83e 1476 333e
00000030: 30ab 3bbe 8525 723e f539 29be 070c 47be
00000040: 3f34 293e 57a3 243e 2842 5d3e d215 733e
00000050: dadd 283e 5b0e 1f3e 837b 5ebe ce9e 3bbe
00000060: e53b 5cbe d691 cdbe 8a1e 193e df36 5fbe
00000070: 358b 2dbe 2e58 33be dcab 51be 8fed 33be
00000080: 9be1 5a3e 01d9 86be e8aa 2ebe f042 383e
00000090: cb0e 263e e823 68be 4a49 d9be 81b7 3b3e
000000a0: e546 483e 7989 443e a484 49be 381c 2dbe
000000b0: 5aab 2a3e a1c7 9f3e bf24 41be f884 1d3e
000000c0: 79f0 103e a053 443e fa99 273e 47c9 28be
000000d0: 5a9c 3a3e c0e6 34be 2096 25be 1ba8 393e
000000e0: 1cb5 2bbe aab0 4cbe b856 35be 3d6c 39be
000000f0: 4587 273e a852 343e 1cd1 83be 834b 413e
00000100: 8721 85be 98aa 5a3e 3b39 67be 0191 3bbe
00000110: b82d 34be 18df a23e 5ebb 963e 8845 8cbe
00000120: 0942 4abe 6165 34be 9f73 89be e29e 42be
00000130: 1848 ca3e 5495 63be 2ede 933e 83e8 1ebe
00000140: a8a3 30be 8074 6cbe 1e1e 28be a79f 34be
00000150: 7e9a 49be ee1e 723e 8c6c 6e3e 4b83 debe
00000160: b87a 003f 2480 2a3e e4b0 34be 4a08 61be
00000170: 1954 083e 9833 66be 7d66 81be 032a 563e
00000180: 11a6 0f3f b14e 26be 6e09 3f3e 1592 73be
00000190: 2ec0 90be b775 6c3e a468 9fbe 12a2 443e
000001a0: 2d76 893e 85f3 363e 8a10 953e 8331 313e
000001b0: b623 25be a9fb a5be 6957 423e cde2 3c3e
000001c0: 6626 56be ab74 4ebe 3eb1 7ebe ac7d 9dbe
000001d0: 142d 60be 08e0 68be 5ea1 80be 12dc 23be
000001e0: 9c3e 4f3e 9f1b 52be 424e 38be f231 1f3e
000001f0: 06a6 183e d58a 293e f740 37be 3541 3dbe
-0.16087069 0.19177683 0.31348544 -0.23807696 0.17187455 -0.19221401 0.24297202 0.17455253
-0.20232585 0.4495344 0.32884404 0.17525512 -0.18327022 0.23647125 -0.16526015 -0.19438182
0.16523837 0.16077934 0.21607268 0.23738793 0.1649088 0.1553282 -0.21726803 -0.18322298
-0.21507223 -0.40150326 0.14953056 -0.21798275 -0.16947635 -0.17514107 -0.20475715 -0.1757109
0.21375124 -0.26337436 -0.17057383 0.17994285 0.1621658 -0.22669947 -0.42438728 0.1833172
0.19558294 0.19193067 -0.19679505 -0.16905296 0.16666928 0.31206992 -0.18861674 0.15382755
0.14154233 0.19172525 0.16367331 -0.16483031 0.18223706 -0.17666149 -0.1617055 0.18130533
-0.16768306 -0.19989267 -0.17708862 -0.18107696 0.16360195 0.17609656 -0.25745475 0.18876462
-0.26002142 0.21354139 -0.22580425 -0.18317033 -0.17595565 0.31810832 0.29439825 -0.27396798
-0.19751753 -0.17616798 -0.26846024 -0.19005921 0.39508128 -0.22224933 0.28880447 -0.15518384
-0.1724993 -0.23091316 -0.16417739 -0.17639028 -0.1968784 0.23644611 0.23283595 -0.43459544
0.50187254 0.16650444 -0.17645603 -0.21975818 0.1331333 -0.22480619 -0.25273505 0.20914464
0.5611277 -0.16240956 0.18655941 -0.23786195 -0.2827162 0.2309178 -0.31134522 0.1920245
0.26847973 0.17866333 0.2911418 0.17304043 -0.16126904 -0.32418564 0.18978657 0.18445893
-0.20913085 -0.20161693 -0.248723 -0.30759943 -0.21892196 -0.22741711 -0.25123113 -0.16001919
0.20238727 -0.20518349 -0.17998603 0.15546396 0.14907083 0.16556866 -0.17895876 -0.18481906

bn2.running_mean f4 [128]
00000000: cf32 e53d c49a c43d 716e 903d d431 003e
00000010: 4b9e 243e 8774 a33d 4fde 813e 34f1 ef3d
00000020: 886e 723d b0f6 543e 0792 b03e 5ba3 af3d
00000030: 8cf6 203e 5fd4 1e3d 44cf 4c3d 7ed8 2e3e
00000040: b7d6 3e3e 5455 383e 168d b83d 6387 013e
00000050: eb04 443e 709e f93d 317d e23d 1ea1 0a3d
00000060: 6152 673d 26ba 363e 7ce9 173e 6273 ac3d
00000070: 6016 2f3e c760 fc3d de1e e83d bc25 fc3d
00000080: 1bcb a53d ca19 d03d 6c82 643e 804b 6f3e
00000090: 3ef6 223e 2496 013e ee60 813e 59ad 4d3e
000000a0: 1328 7a3e 58d0 913d 2d20 eb3d 6f61 323e
000000b0: 33d8 3e3d e1a1 9f3d cb66 6f3d b23e 8b3e
000000c0: 220f 2a3e 8b8d 403e ea5e ca3d dc56 233e
000000d0: 39af d03d 53ac 223e dd4d c03d caca 883e
000000e0: 6014 363d f866 4b3e 17cc ca3d 8aa6 ad3d
000000f0: 3ab7 8b3d 2b6e b03d 2c22 be3d e772 c73d
00000100: bc2d f43d eec2 c63d aa1b ae3d f7f7 ab3d
00000110: 3c87 383e 9f2f ab3d 00f8 793e e0fd ba3d
00000120: 7257 123e e250 983d 8bdf 893d b6ee d53d
00000130: cf57 343e bed9 d63d ba6e d43d e993 0c3e
00000140: a468 3f3e 08f9 483e 5f4d bf3d 84d4 5d3d
00000150: 5a89 243e 7558 013e 3a56 993d d030 1f3e
00000160: 3ad8 d53d 308d 523e a65e c33d df19 9d3d
00000170: d038 773e 22ec 6b3e eba6 cc3d bc5f e63d
00000180: 9d13 363e 082a f13d d0f7 9c3d ba39 5a3d
00000190: 66ea a63d 3ca8 0f3e 214b 1a3e e908 963d
000001a0: 922d 1b3e 09b2 0e3e ddc6 953d 45ca 4f3e
000001b0: de3a 333e fda2 e73d 5c00 ee3d f21f 6b3e
000001c0: ca44 233e 086e a83d 9b76 cb3d 9cb1 6c3d
000001d0: f4f6 323e 0dd8 613e 6192 303d ffe5 773d
000001e0: d5fd fe3e 32f3 a93d ce94 b63c cb39 e33d
000001f0: 8a9f 8c3e b42e 013e 3812 433d cb80 523d
0.111913316 0.09599832 0.07052315 0.12519008 0.16076009 0.0798121 0.2536492 0.11715928
0.059187442 0.20797229 0.3448641 0.085760795 0.1571905 0.03877675 0.05000235 0.17074773
0.18636595 0.180013 0.09011285 0.12649302 0.19142501 0.12188423 0.110590346 0.03384506
0.056475047 0.17844447 0.14835161 0.08420445 0.17098379 0.12323146 0.113340124 0.12311885
0.0809538 0.10161169 0.22315377 0.23368645 0.15914246 0.1265493 0.25269264 0.20085658
0.2442935 0.071198165 0.114807464 0.1741998 0.046592902 0.07794548 0.05844764 0.2719627
0.16607335 0.18803994 0.09881385 0.15951103 0.10189671 0.15886049 0.09389851 0.26717216
0.044453025 0.19863498 0.09902208 0.084790304 0.06822057 0.08614763 0.092838615 0.09738713
0.11922786 0.09705149 0.0850137 0.08396905 0.18020338 0.083586924 0.2441101 0.09130454
0.1429117 0.07437302 0.067320906 0.10445921 0.17611621 0.1049075 0.10372682 0.13728298
0.18692261 0.19626248 0.09340929 0.05415775 0.1606802 0.126314 0.074871495 0.15545964
0.104416326 0.20561671 0.09539537 0.0767095 0.24142766 0.23039296 0.099927746 0.11248729
0.1778092 0.11775595 0.07664454 0.05327771 0.08150177 0.1402902 0.15067722 0.07325918
0.15154102 0.13935103 0.07313321 0.20292003 0.17502925 0.113103844 0.11621162 0.22961405
0.1594421 0.08224112 0.099347316 0.05778657 0.17477018 0.22055073 0.043108348 0.060522076
0.49803033 0.08298339 0.022287752 0.110950075 0.2746547 0.12615472 0.047624797 0.051392358

bn2.running_var f4 [128]
00000000: 285a 2a3e 1508 5d3d c514 263d be51 3b3e
00000010: ce9c a83d f100 ed3d 7e1f 1c3e 2704 913d
00000020: 5e80 7d3d dd1f 023e 4127 573e 180f 313d
00000030: ed3c a33e 6756 933c e718 473d 15a7 4c3e
00000040: 5c12 ee3d 5be3 e83d 3025 4e3d 0313 903d
00000050: 7538 d13d e487 863d 10d1 113e b945 103d
00000060: 5669 853d 5ae1 ee3e aa3d b13d 138f d53d
00000070: 36ad 8b3e d2b5 203e d8da 543e 789d 373e
00000080: 366c 3f3d f101 1e3e 13a2 283f f4cf 123e
00000090: 1f75 b73d 1e20 633e 1f78 523f d0f6 d53d
000000a0: dcc4 1e3e 9440 243d fc4a 4f3e d545 cc3e
000000b0: 7f39 aa3c 3a15 473d 62f3 7f3d cf62 0f3e
000000c0: 30bf ac3d 61a0 df3d 4b20 633d 100f b73e
000000d0: 0734 4f3d e0be 6a3e b1a1 fc3d e13a 0b3e
000000e0: 9d3c 403d 8afa ef3e ba99 0b3e ee9f ee3d
000000f0: 69e1 0a3d ed2a 2d3d fc60 023e a731 403d
00000100: 6582 603e 9149 443d 40f9 ca3d 0bfb dd3d
00000110: 118e c53e 0c62 343d 45ab 1d3e e6c2 0c3e
00000120: b080 723e 740b bc3d f4ea a53d b1eb 2a3e
00000130: db32 dd3d 1cb1 053e 032a 723d e8e2 5f3e
00000140: f281 883e b2a9 d73e 4112 f83d 2660 673d
00000150: 5ffe a53e 61d9 963d e28f 273d 3345 3e3e
00000160: 92d9 8c3d 2f1c e93d 8c25 f63d f62a c43d
00000170: 9e53 f43d 94a3 eb3e 129a cc3d 35e7 743d
00000180: 1328 003e 7bea 353e dc53 2e3d 9d11 7e3d
00000190: 521a 063e ca70 a33d 3752 603e b871 223d
000001a0: 0c61 c13d e7e7 a73d 3155 203d 189d fc3d
000001b0: 7f33 b23e a56e 283e 0250 883d 91bc 0b3e
000001c0: 6125 7c3e 7f01 c63d 909f 1c3e 34e4 8f3d
000001d0: 2a72 953e 551c 063f d755 423d 11f9 b23c
000001e0: 6631 8b3e b814 ff3d e4b8 9d3c 7115 7f3d
000001f0: 8a3b 023e 8553 8e3d 4136 693d 9b02 663d
0.16635954 0.053962786 0.04054715 0.18292901 0.08233033 0.11572445 0.15246388 0.0708087
0.06189 0.12707467 0.21011068 0.043227285 0.3188242 0.017985536 0.048607733 0.19985612
0.116245955 0.113714896 0.050328434 0.07034876 0.102158464 0.06568888 0.14239907 0.035222743
0.06514232 0.46656305 0.086543396 0.1042768 0.27280587 0.15694359 0.20786607 0.17931163
0.046734057 0.15430428 0.65872306 0.1433714 0.08957886 0.2218022 0.8221454 0.104474664
0.15504783 0.04010065 0.20243448 0.39897028 0.02077937 0.048604228 0.062487967 0.14002536
0.084349036 0.10919262 0.05545072 0.3575368 0.050586727 0.22924376 0.12335528 0.1359668
0.046932805 0.46870834 0.13632861 0.11651598 0.033906374 0.042277265 0.12732309 0.046922352
0.21924742 0.04792172 0.09910822 0.10838898 0.3858495 0.044038817 0.15397365 0.13746223
0.23681903 0.09181872 0.081014544 0.16691472 0.108007155 0.13055843 0.059122097 0.21863902
0.2666164 0.42121655 0.12112857 0.05648818 0.32420632 0.073656805 0.0409087 0.18581085
0.06877436 0.11382329 0.1201888 0.09578507 0.11930011 0.46023238 0.09990324 0.05979081
0.12515287 0.17765228 0.042560443 0.062028516 0.13095978 0.07980497 0.21906362 0.039659232
0.09442338 0.08198529 0.039143745 0.12334651 0.34804913 0.16448458 0.06655885 0.13646151
0.24623634 0.09668254 0.15295243 0.07025948 0.29188663 0.5238698 0.047445145 0.02184728
0.27186126 0.12455124 0.019253202 0.062276307 0.12718025 0.06949524 0.056936506 0.05615483

out_layer.weight f4 [1, 128]
00000000: c294 593e fc15 80be d4f3 6cbe 5e32 573e
00000010: 1cac 74be cf6f 363e 3234 8cbe 6944 86be
00000020: e02a 423e ebbe 87be 0fc9 53be e1d2 59be
00000030: fa16 613e 6fca 78be 7f13 723e 9170 793e
00000040: 7f37 99be b79d 75be 210e 6bbe 8b82 5dbe
00000050: 989c 91be 64f7 50be d0a5 253e b377 553e
00000060: ab3c 603e d0e7 613e 960d 77be 75ae 543e
00000070: 6cb3 473e a585 743e 327d 5d3e 1890 4b3e
00000080: b767 84be 092d 4d3e e362 723e e249 4dbe
00000090: a94b 4bbe 45f0 483e 21a2 663e 9b04 3dbe
000000a0: e0f8 79be 27d6 77be 2dbd 683e 33e2 733e
000000b0: 052f 7ebe 5e11 5abe 940c 593e c792 4dbe
000000c0: d5c3 66be 9f21 63be 8bc2 8bbe 0ade 813e
000000d0: 8f85 8cbe 0f19 893e cdb0 503e abbc 06be
000000e0: 1eb3 773e c881 4a3e 401c 6c3e 085f 683e
000000f0: 7aaa 5dbe 0bf0 40be e4ce 283e 01b2 60be
00000100: 6a1b 2a3e b3bb 73be 1117 563e 2aac 453e
00000110: 041b 523e 4a20 4ebe 322d 7cbe 5194 463e
00000120: aa00 553e 67de 803e 8dc3 0b3e 703e 263e
00000130: a430 53be b649 633e dcf4 86be 613b 563e
00000140: 18da 753e 70a8 353e 28bf 573e 755c 753e
00000150: 673c 573e 429a 64be fb16 78be 97c3 0d3e
00000160: ed7e 86be 8769 59be 6d0c 713e 4452 2f3e
00000170: 017e 38be 05a7 173e 3d07 553e 0312 52be
00000180: 2401 a0be 9bdf 553e 71f3 87be 30b0 463e
00000190: 66ae 4d3e 4066 80be 31b5 503e 0775 8fbe
000001a0: 746d 80be 3d27 6ebe 6141 6bbe 4930 49be
000001b0: 20e2 343e bc34 593e 71bb 36be e8fc 41be
000001c0: a85c 523e ce55 643e af24 4f3e 89f4 403e
000001d0: 597f 583e f409 233e 339b 303e 2b78 c23d
000001e0: 8463 4fbe e1c7 183e 85df 633e d3de 92be
000001f0: eb2f 4fbe 673b 76be 182d 7a3e 59b7 483e
0.21248153 -0.25016773 -0.23139888 0.21015307 -0.2389378 0.17816089 -0.27383572 -0.26224068
0.18961668 -0.26512846 -0.20682167 -0.2127185 0.21981421 -0.24295972 0.2364025 0.24359347
-0.29925153 -0.23985945 -0.22954609 -0.2163183 -0.28439784 -0.20406872 0.16176534 0.20846443
0.21898143 0.22061086 -0.24126276 0.20769675 0.19502038 0.23879106 0.2162979 0.19879186
-0.25860378 0.20036711 0.23670535 -0.20047715 -0.19853081 0.19622906 0.22522785 -0.18458788
-0.24411345 -0.24202786 0.22728415 0.23816757 -0.24822624 -0.21295688 0.21196204 -0.20075522
-0.22535641 -0.22180794 -0.27296862 0.25364715 -0.27445647 0.2677693 0.20379944 -0.13157909
0.24189422 0.1977607 0.23057652 0.22692502 -0.21647063 -0.18841569 0.16485173 -0.21942903
0.1661202 -0.2380207 0.20907237 0.19303957 0.20518118 -0.20129505 -0.24626616 0.19392516
0.20801035 0.2516968 0.13648815 0.16234756 -0.20624024 0.22196087 -0.26358688 0.20921089
0.24008977 0.17740035 0.21069014 0.23961051 0.21019135 -0.2232447 -0.24227516 0.13844143
-0.26268712 -0.21231662 0.23539896 0.17121226 -0.18016817 0.14809807 0.20803542 -0.20514683
-0.3125087 0.2088608 -0.2655292 0.19403148 0.20086059 -0.2507801 0.20381619 -0.28018972
-0.25083506 -0.23257156 -0.22974159 -0.19647326 0.17664385 0.21211523 -0.1784494 -0.18944132
0.20543158 0.22298357 0.20228837 0.18843283 0.2114233 0.15921766 0.17246704 0.094955765
-0.20252806 0.14919998 0.22253235 -0.28685626 -0.20233123 -0.24046098 0.24431264 0.19601192
